flygym/data/test_data/head_stabilization_model_all.ckpt (torch, 41867 bytes, 18 tensors)

layer1.weight f4 [32, 48]
0	0xbe38328d	-0.17988034
1	0x3d3f1656	0.04665216
2	0xbd8b01b9	-0.06787438
3	0xbd15df60	-0.03658998
4	0x3da2a640	0.07941866
5	0xbdc26a4d	-0.094929315
6	0x3d1327b3	0.035926532
7	0xbe6cc1ea	-0.23120847
8	0x3e4c3f07	0.19945918
9	0xbdf3a0e6	-0.11895923
10	0x3ddccf3c	0.10781714
11	0xbde31e40	-0.11089754
12	0xbdb6f73a	-0.089338735
13	0xbbc66698	-0.0060547106
14	0x3f0af4aa	0.5427958
15	0x3aa31735	0.0012442829
16	0x3da83096	0.08212392
17	0xbf2a0909	-0.66420037
18	0xbe400bd7	-0.18754517
19	0xbf1745b6	-0.59090745
20	0xbe01dfa0	-0.12682962
21	0x3dba232f	0.09088742
22	0x3e08bb96	0.13352808
23	0xbd07f799	-0.033195112
24	0x3c41c964	0.0118278
25	0x3d866881	0.06562901
26	0x3e7f95f0	0.2495954
27	0x3cb45c50	0.022016674
28	0x3e01ed93	0.12688284
29	0xbdccfa1d	-0.10008643
30	0xbe16ace6	-0.14714393
31	0xbd8bc493	-0.06824603
32	0xbc49f4b5	-0.012326409
33	0x3c39d2fb	0.011341806
34	0xbcf51cb8	-0.02992092
35	0xbd03467f	-0.032049652
36	0xbe5f5415	-0.21809418
37	0x3d3a0f10	0.04542452
38	0xbe3e5f6e	-0.18591091
39	0x3c0b841b	0.008515383
40	0x3da07488	0.078347266
41	0xbd45531d	-0.048174966
42	0x3e512599	0.20424499
43	0x3e56b4f8	0.20967472
44	0xbc26a27a	-0.010170573
45	0xbd6807de	-0.056648128
46	0x3ddb5dea	0.10711272
47	0xbbab664e	-0.0052307015
48	0x3ea47236	0.32118386
49	0x3e580763	0.21096568
50	0xbdb21e6c	-0.08697209
51	0x3e22e42a	0.1590735
52	0x3e39c095	0.1813987
53	0xbf24eef3	-0.6442711
54	0xbe3f0ccc	-0.18657225
55	0x3e65b462	0.22432092
56	0x3dd93ce7	0.10607319
57	0xbd87dc0d	-0.06633768
58	0x3ce162cc	0.02751293
59	0x3e31112c	0.17291707
60	0xbdad0206	-0.084476516
61	0xbdfa0608	-0.122081816
62	0xbe1ae74b	-0.15127294
63	0x3d25c403	0.040470134
64	0xbe091dfd	-0.13390346
65	0xbe4bb764	-0.19894177
66	0xbe8027f2	-0.25030476
67	0xbed3229e	-0.41237348
68	0x3daad4df	0.08341383
69	0x3e246892	0.16055515
70	0x3e3c214e	0.1837208
71	0xbd91427e	-0.070927605
72	0x3c511bfe	0.0127630215
73	0xbd7f9dee	-0.062406473
74	0xbe9ce271	-0.3064151
75	0x3e0d16d8	0.13778245
76	0xbd154c5c	-0.036449775
77	0x3d5d1bde	0.053981654
78	0x3de68165	0.11255149
79	0x3ed277d2	0.4110704
80	0xbea07076	-0.313358
81	0x3e29c982	0.16580775
82	0x3dadae4a	0.084805086
83	0xbe9b5556	-0.30338544
84	0x3e9fce41	0.31212047
85	0xbd97902a	-0.07400544
86	0x3e8e5760	0.27801037
87	0x3d433740	0.047660112
88	0x3e45abdc	0.1930384
89	0xbdb06553	-0.08613076
90	0x3c5d0590	0.013490096
91	0x3e214c1f	0.15751694
92	0x3c43f0fe	0.0119593125
93	0xbd38f3a0	-0.045154214
94	0xbdda311a	-0.10653897
95	0x3b4ac10e	0.0030937823
96	0x3df3d282	0.119053856
97	0xbde7e8e4	-0.11323717
98	0xbd3d4601	-0.04620934
99	0x3ef75fb8	0.48315215
100	0xbdfd5063	-0.12368848
101	0x3eced079	0.40393427
102	0x3e543e94	0.20726997
103	0x3b5ba61d	0.003351576
104	0x3d0e579b	0.034751516
105	0xbea0712f	-0.31336352
106	0x3ed426f3	0.41435966
107	0xbeb42e25	-0.35191455
108	0x3e66ff3f	0.22558306
109	0x3ca10fe1	0.019660892
110	0xbcea779f	-0.028621493
111	0xbe21db11	-0.15806223
112	0x3db73433	0.08945503
113	0x3c491f1d	0.012275484
114	0x3d09f7cd	0.033683587
115	0x3c6bbfc5	0.014388983
116	0x3e057f0e	0.13036749
117	0xbe1ef1b1	-0.15521885
118	0x3c2eaada	0.010660851
119	0xbdc23163	-0.09482076
120	0xbe1aae8b	-0.15105645
121	0x3cf51e5e	0.029921707
122	0x3e33b3ed	0.17549105
123	0xbda6d4f3	-0.081460856
124	0x3db78fe5	0.089629926
125	0x3e7dd4ad	0.2478816
126	0xbdd97058	-0.10617131
127	0xbca8f43d	-0.020624274
128	0x3e5be89f	0.21475457
129	0xbde3997c	-0.11113259
130	0xbdf49ae5	-0.11943606
131	0x3dedf5d2	0.11619152
132	0x3dc6ea7d	0.09712694
133	0xbda26f92	-0.079314366
134	0xbefe4111	-0.49659017
135	0x3aac22ae	0.0013132894
136	0xbef544e1	-0.47904113
137	0xbe8140ab	-0.2524465
138	0xbd2a31c4	-0.041551366
139	0x3e00a868	0.12564242
140	0x3cda9ed6	0.026687067
141	0xbe3c5082	-0.18390086
142	0x3da3b96e	0.07994352
143	0x3d03d8f8	0.03218934
144	0x3e946e32	0.28990322
145	0xbefbed71	-0.4920459
146	0xbdf0d36a	-0.11759074
147	0x3ce5291d	0.027973706
148	0x3e29b53a	0.16573039
149	0xbdbbc037	-0.091675214
150	0x3cc2576d	0.023723328
151	0x3ea9cb41	0.33162883
152	0xbe94f1df	-0.29090783
153	0xbde639b9	-0.112414785
154	0xbdc3d1b0	-0.09561479
155	0x3b8c4f68	0.004281927
156	0xbcbc90b1	-0.023018213
157	0xbd649e58	-0.05581507
158	0x3db43d6e	0.08800779
159	0x3df20183	0.118166946
160	0xbe1c8320	-0.15284395
161	0x3e18049f	0.14845513
162	0xbe07929f	-0.13239525
163	0xbe00bde8	-0.12572443
164	0xbe114ef2	-0.14190271
165	0xbea2e920	-0.31818485
166	0x3e0c5e5e	0.13707873
167	0xbe21e21a	-0.15808907
168	0xbef1aaef	-0.47200724
169	0x3db7f86b	0.08982929
170	0xbeb26602	-0.3484345
171	0xbdda32ea	-0.10654242
172	0xbd900f51	-0.070341714
173	0xbcda51ce	-0.026650336
174	0x3e4d2753	0.20034532
175	0x3eea467f	0.4575691
176	0x3e04d3bd	0.12971397
177	0x3e91d70c	0.2848438
178	0xbd662898	-0.056191057
179	0xbd6b8c81	-0.05750704
180	0xbe61c4e2	-0.22047761
181	0xbe3b1c71	-0.18272568
182	0x3db21193	0.08694758
183	0xbe6ecf7c	-0.23321337
184	0xbdcda79e	-0.10041736
185	0x3e07030a	0.13184753
186	0xbd908f05	-0.07058529
187	0x3b9c2a33	0.0047657727
188	0x3ca27767	0.019832326
189	0xbe04ef15	-0.12981828
190	0x3df855ad	0.12125716
191	0xbcc87ee3	-0.024474567
192	0x3c4c8bd1	0.012484507
193	0x3e7c02b8	0.24610412
194	0x3dcbb9b0	0.099475265
195	0xbe3d0d44	-0.18462092
196	0xbe2b8b01	-0.16752245
197	0xbee8b13a	-0.45447713
198	0xbe8ef164	-0.2791854
199	0xbce983d3	-0.028505241
200	0x3e00486a	0.12527624
201	0x3ce4d961	0.027935686
202	0xbea048eb	-0.31305632
203	0x3c889c06	0.01667596
204	0xbd05bdd4	-0.032651737
205	0x3da5654a	0.0807596
206	0x3e1af4b3	0.15132408
207	0xbdb9c459	-0.090706535
208	0x3e12efdb	0.1434931
209	0xbe7d1301	-0.2471428
210	0x3d60698f	0.05478817
211	0xbecc7d43	-0.39939317
212	0xbd90a687	-0.070630126
213	0xbe16f1c2	-0.14740661
214	0xbd4ab77d	-0.049491394
215	0xbd7499a4	-0.059716836
216	0x3e3bff3f	0.18359087
217	0x3dc79145	0.09744505
218	0x3dc4d7f7	0.096115045
219	0x3eb142ac	0.3462118
220	0xbe8b033a	-0.271509
221	0x3e617ac9	0.22019495
222	0xbcd9f715	-0.026607076
223	0x3ecb1520	0.39664555
224	0x3d7dadb4	0.061933234
225	0xbd6d5950	-0.057946503
226	0x3e0b9e3b	0.13634579
227	0x3d45ae61	0.048262004
228	0xbe35dc97	-0.1775993
229	0xbd244f48	-0.04011467
230	0xbe80022a	-0.2500165
231	0x3d65b968	0.05608502
232	0x3e1cd05b	0.15313856
233	0x3e361752	0.17782333
234	0x3dd4e7d2	0.10395779
235	0x3de96b52	0.11397423
236	0x3d93878b	0.07203587
237	0x3d83cd1c	0.06435606
238	0x3e1f89f2	0.15579966
239	0x3d90a6f5	0.070630945
240	0x3da85052	0.08218445
241	0xbdacde2e	-0.08440815
242	0xbc8e602e	-0.017379846
243	0xbd72303d	-0.059128035
244	0x3cb66f66	0.022269916
245	0x3d5717f8	0.052513093
246	0xbda6488e	-0.081193075
247	0x3e22722c	0.15863866
248	0xbd2148ba	-0.039375998
249	0xbe1bf28f	-0.15229248
250	0x3e96940b	0.29409823
251	0x3e3cc2db	0.18433706
252	0x3df7f5ab	0.12107404
253	0x3db489a1	0.08815313
254	0xbe2e231d	-0.17005582
255	0x3e1e7a68	0.15476382

layer1.bias f4 [32]
0	0x3db7fec5	0.0898414
1	0xbe40b08e	-0.1881735
2	0xbdf86911	-0.12129415
3	0x3e36ef3c	0.17864698
4	0x3e9a66cc	0.30156553
5	0x3e634e87	0.22197925
6	0x3e1cbf77	0.15307413
7	0x3e92cc69	0.28671578
8	0xbf2fb44c	-0.68634486
9	0x3ed84965	0.42243496
10	0x3d4910e1	0.049088363
11	0x3eaaed57	0.333842
12	0xbd191aee	-0.037379198
13	0x3e828f3f	0.25499913
14	0x3d3f70b8	0.046738356
15	0xbe34fe92	-0.17675236
16	0x3eb682c7	0.3564665
17	0x3e7c7ad2	0.24656227
18	0xbd24de65	-0.040251154
19	0xbeab72f4	-0.3348614
20	0x3e8bb40f	0.2728581
21	0x3e789607	0.24275981
22	0x3e31daa0	0.17368555
23	0x3b53735b	0.0032264802
24	0x3e24bf99	0.16088714
25	0x3cf02e86	0.02931906
26	0xbe08ed31	-0.13371731
27	0xbeae9b9c	-0.34103096
28	0x3e067262	0.13129571
29	0xbe8d7ddd	-0.2763509
30	0x3d85470e	0.06507693
31	0x3ea30257	0.31837723

layer2.weight f4 [32, 32]
0	0xbe098987	-0.13431369
1	0xbe2f7b87	-0.17136966
2	0xbe06aed3	-0.13152628
3	0xbe092155	-0.13391621
4	0xbe493f5b	-0.19653074
5	0x3d58b484	0.052906528
6	0xbdf68e32	-0.1203884
7	0xbc8c7032	-0.017143343
8	0xbe7119a0	-0.23544931
9	0xbd019d82	-0.03164435
10	0xbc2155dd	-0.009847132
11	0xbef509e7	-0.47859117
12	0x3da1a850	0.07893431
13	0x3e1bf1df	0.15228985
14	0x3ec05615	0.37565675
15	0xbda3b98f	-0.07994377
16	0xbdad0747	-0.08448654
17	0xb91fd66d	-0.00015243301
18	0xbdecc28e	-0.11560546
19	0xbf0d3749	-0.55162483
20	0xbdb7a24a	-0.08966501
21	0x3d8f5423	0.0699847
22	0x3d578369	0.052615557
23	0x3eac1a52	0.3361383
24	0xbc5859ca	-0.013205001
25	0x3bdacf78	0.0066775642
26	0x3e72af64	0.23699719
27	0xbf6ac919	-0.917131
28	0xbe4b3006	-0.19842538
29	0x3e22fc3f	0.15916537
30	0xbe27bfb6	-0.16381726
31	0x3d6e70e1	0.05821312
32	0xbe121fb8	-0.14269912
33	0x3e9e757a	0.30949003
34	0xbdbdd014	-0.092682034
35	0x3e2b8ece	0.16753694
36	0x3e436814	0.19082671
37	0xbe3cc235	-0.18433459
38	0xbbaf7288	-0.0053542294
39	0xb9f13b59	-0.0004601132
40	0xbe0c7db8	-0.13719833
41	0x3e773199	0.24140014
42	0x3e390fbc	0.18072408
43	0xbddab45d	-0.10678933
44	0x3d961a51	0.07329238
45	0xbc3ac3ae	-0.011399193
46	0xbdbc675f	-0.09199404
47	0xbdc61f1c	-0.096739024
48	0x3e9311d4	0.2872454
49	0xbce058ed	-0.027386153
50	0xbdc5f010	-0.09664929
51	0x3d6737d6	0.056449734
52	0xbd0d650b	-0.03452019
53	0xbd9a6126	-0.07538061
54	0x3e0d0787	0.13772403
55	0x3e387ee3	0.18017153
56	0xbb4fbabc	-0.0031696996
57	0xbe32ac17	-0.1744846
58	0xbe39bc52	-0.18138245
59	0x3de97769	0.11399729
60	0xbd9e706b	-0.07736286
61	0x3d7186f5	0.058966596
62	0x3e2dde2f	0.16979288
63	0xbd83037c	-0.06397149
64	0xbf532b6f	-0.8248815
65	0xbe3cd19b	-0.18439333
66	0xbe04bdff	-0.12963103
67	0x3e7b2f3d	0.24529739
68	0xbd32d9df	-0.04366481
69	0xba9d5135	-0.0012002351
70	0x3e3b5035	0.18292315
71	0xbe815d4e	-0.25266498
72	0x3ed1a095	0.40942827
73	0xbea20c89	-0.3165019
74	0x3dec874a	0.11549242
75	0xbebc52d9	-0.36781958
76	0x3cdfe1b4	0.027329303
77	0xbc8fb7c4	-0.017543681
78	0xbf0f3d94	-0.55953336
79	0x3de3d1c8	0.11123997
80	0xbe1ddebd	-0.15416999
81	0xbe0569ed	-0.13028689
82	0xbee6f01b	-0.4510506
83	0xbcfb2d55	-0.030661264
84	0x3e75379d	0.23946996
85	0x3ea5cf26	0.32384604
86	0x3ec6374f	0.38714072
87	0xbe34ec02	-0.17668155
88	0xbe3b326a	-0.1828095
89	0x3df0cfc8	0.11758381
90	0x3e922daf	0.2855048
91	0x3e5be967	0.21475755
92	0xbe16888a	-0.14700523
93	0x3dcb827a	0.09936996
94	0x3de78962	0.113055006
95	0xbe58044f	-0.21095394
96	0x3e543a57	0.2072538
97	0xbc67679a	-0.014123822
98	0x3ddb9c1e	0.10723136
99	0x3df01d82	0.11724378
100	0x3e17dbb9	0.14829911
101	0x3e0b4c3e	0.13603303
102	0xbe19423e	-0.14966676
103	0xbdd273f4	-0.102760226
104	0xbe43f633	-0.19136886
105	0xbe05508a	-0.13019004
106	0x3dfc4d5b	0.12319442
107	0xbd6c4696	-0.057684503
108	0x3e8d3647	0.27580473
109	0x3e33f39c	0.17573398
110	0x3e95e525	0.29276386
111	0xbe3f2097	-0.18664776
112	0x3d9c4b57	0.076315574
113	0xbdbf890b	-0.09352311
114	0xbe60f843	-0.21969704
115	0xbea7c34a	-0.3276618
116	0xbae0620c	-0.0017119064
117	0x3ea0e83d	0.31427184
118	0xbe54bfc0	-0.20776272
119	0x3e1ec97a	0.15506545
120	0x3c517388	0.012783892
121	0xbbe0d144	-0.006860884
122	0x3d05c90c	0.032662436
123	0x3e17d096	0.14825663
124	0xbd083328	-0.03325191
125	0xbd0fc262	-0.035097487
126	0x3e389ac5	0.1802779
127	0xbeb4315c	-0.35193908
128	0x3d8327c2	0.064040676
129	0xbdbd3d5a	-0.092402175
130	0x3cd3f9c5	0.025875935
131	0x3cd480d8	0.025940344
132	0x3e25ea43	0.16202645
133	0xbd061c23	-0.032741677
134	0x3e0f3ded	0.13988467
135	0xbe171a2b	-0.14756076
136	0x3e3f79dd	0.18698831
137	0xbc84523c	-0.016152494
138	0x3bb59133	0.0055409907
139	0x3d698be6	0.057018183
140	0xbe4bfede	-0.19921443
141	0x3de0f16e	0.10983549
142	0x3e5f7542	0.21822074
143	0xbe08631b	-0.13319056
144	0xbcf9ffd5	-0.030517498
145	0xbd40d062	-0.04707373
146	0xbe3c4a90	-0.18387818
147	0xbe1cc15d	-0.15308137
148	0xbe305e66	-0.1722351
149	0xbe73a299	-0.23792495
150	0xbd3e96ad	-0.046530414
151	0x3e4b5fa2	0.198607
152	0xbd334ad7	-0.043772545
153	0x3e42d563	0.19026713
154	0xbd6f3634	-0.0584013
155	0x3eb64483	0.35599145
156	0x3c17fa4a	0.009275982
157	0x3d1f4984	0.03888847
158	0x3e3c2543	0.18373589
159	0x3e2f411f	0.17114685
160	0x3c3b30f2	0.011425244
161	0xbe33683b	-0.1752023
162	0x3d34c177	0.044129815
163	0x3dbb2114	0.091371685
164	0xbd87ce10	-0.066311
165	0x3e31acc4	0.17351061
166	0x3e2516c2	0.16121963
167	0x3e8da1fb	0.27662644
168	0x3d877e6e	0.066159114
169	0x3d50f6bc	0.051016554
170	0xbe0177e1	-0.12643386
171	0xbc95e0d1	-0.018295677
172	0x3e28e221	0.16492511
173	0xbcfb5949	-0.030682223
174	0x3d7065e9	0.05869094
175	0x3de31b15	0.1108915
176	0xbd7d9ea5	-0.061918873
177	0xbee47a32	-0.44624478
178	0xbe1d8e43	-0.153863
179	0x3e53cc3f	0.20683382
180	0x3c135dfd	0.0089945765
181	0xbe9ee753	-0.3103586
182	0x3e2fc746	0.1716586
183	0xbdaefc91	-0.08544267
184	0x3e17b4f4	0.14815122
185	0x3d9f400b	0.07775887
186	0x3c386107	0.011253602
187	0x3bce245c	0.0062909555
188	0x3e0ac2d8	0.1355089
189	0xbeb5745c	-0.35440338
190	0x3ea11487	0.31460974
191	0xbe5510b0	-0.20807147
192	0xbe6f8f9e	-0.2339463
193	0x3c4eeeea	0.012630204
194	0xbe6c1c37	-0.23057638
195	0xbe011dc5	-0.12609012
196	0x3d00b166	0.03141918
197	0x3e17f240	0.14838505
198	0xbe8e10b1	-0.2774711
199	0xbe2e6ca9	-0.17033638
200	0xbfa114f2	-1.2584517
201	0x3d574cab	0.05256335
202	0xbe08e0f6	-0.13367066
203	0xbe1ed93a	-0.15512553
204	0x3e4c186e	0.19931194
205	0x3db2ca68	0.08730012
206	0xbe980926	-0.2969448
207	0x3dd86579	0.105662294
208	0xbdbc1a45	-0.09184698
209	0x3c83ba8e	0.016080167
210	0x3e140ca8	0.14457953
211	0xbce0dfb0	-0.027450413
212	0x3def8b18	0.11696452
213	0x3d8c5f89	0.068541594
214	0x3e688578	0.22707164
215	0x3d530770	0.051520765
216	0xbe8eefe7	-0.27917406
217	0xbe2454e0	-0.16048002
218	0xbdadadde	-0.08480428
219	0xbda7dde6	-0.08196621
220	0xbe9eb144	-0.30994618
221	0x3e32f2db	0.17475455
222	0xbcb4dfd3	-0.022079384
223	0x3cf8cc10	0.030370742
224	0xbe976dc2	-0.29575926
225	0xbe37c5eb	-0.17946593
226	0x3e3e2fb0	0.18572879
227	0x3e36adb4	0.178397
228	0xbe0f715a	-0.14008084
229	0xbc3fd1c1	-0.011707724
230	0xbd253cfe	-0.04034137
231	0xbde85c01	-0.11345673
232	0x3ea6e824	0.32598984
233	0x3e7c8a34	0.24662095
234	0x3ddcd766	0.107832715
235	0xbd885e71	-0.06658638
236	0x3e01f5b5	0.12691386
237	0xbd7a139d	-0.06105386
238	0xbe0eda20	-0.13950396
239	0xbda20923	-0.07911899
240	0x3e06e8fb	0.13174812
241	0x3e94522d	0.28968945
242	0x3decc8a4	0.11561707
243	0x3e651e83	0.2237492
244	0x3d3f9cfe	0.04678058
245	0xbd8e6409	-0.06952674
246	0x3e910369	0.28322914
247	0x3cf89214	0.030343093
248	0xbda27932	-0.079332724
249	0xbd256a62	-0.040384658
250	0x3e93fc08	0.28903222
251	0xbd8837f0	-0.06651294
252	0x3d85d5a2	0.06534888
253	0x3d6bfa61	0.057611827
254	0x3de6617c	0.112490624
255	0xbe2609f9	-0.16214742

layer2.bias f4 [32]
0	0x3cb15e81	0.021651508
1	0x3e12f3e3	0.14350848
2	0xbe5630da	-0.20917073
3	0x3de19ecd	0.11016617
4	0x3d9422e5	0.07233218
5	0xbeaaae38	-0.33336043
6	0x3e8b0585	0.2715265
7	0x3d55a669	0.052160654
8	0xbe79656a	-0.24355093
9	0xbe574b0a	-0.21024719
10	0x3db7d132	0.08975448
11	0xbd35c83a	-0.044380404
12	0xbcf46897	-0.029835029
13	0xbe3feeb2	-0.18743399
14	0x3ea55938	0.3229463
15	0xbd11472d	-0.03546827
16	0xbd59463c	-0.053045496
17	0xbe24dd19	-0.16099967
18	0x3dac0bfc	0.08400723
19	0xbd20ad97	-0.03922805
20	0xbe049528	-0.12947524
21	0xbe8abd10	-0.27097368
22	0xbe1ad544	-0.15120417
23	0x3e6cf516	0.23140368
24	0x3e127248	0.14301407
25	0xbde49449	-0.11161096
26	0x3c28ea22	0.010309728
27	0x3e04e8eb	0.12979476
28	0x3e840355	0.25783792
29	0x3e50a69b	0.20376055
30	0x3e7056a8	0.23470557
31	0xbc0ab3ed	-0.008465749

layer3.weight f4 [2, 32]
0	0x3df39269	0.1189316
1	0x3da07b0c	0.07835969
2	0xbe7664b6	-0.24061856
3	0xbd1239e6	-0.035699748
4	0x3d252a0d	0.040323306
5	0x3dac7d02	0.08422281
6	0xbe051e70	-0.12999892
7	0xbd87dd02	-0.06633951
8	0xbd97561e	-0.073894724
9	0xbd9e9eec	-0.07745156
10	0xbbceaf49	-0.0063075167
11	0xbd154d10	-0.036450446
12	0x3d9c87c7	0.07643085
13	0xbc8286d5	-0.015933434
14	0x3d81f1b1	0.06344927
15	0x3d57fa94	0.052729204
16	0x3d89f620	0.06736398
17	0xbd3162f7	-0.04330727
18	0xbd3b9f9c	-0.045806512
19	0xbd894253	-0.067021035
20	0x3c9554ba	0.018228877
21	0x3d70193d	0.05861782
22	0x3e08358f	0.13301681
23	0x3d380637	0.044927802
24	0xbd90d85c	-0.07072517
25	0x3dca1688	0.09867579
26	0x3c3ea703	0.011636498
27	0x3dd525ce	0.10407601
28	0xbd81e8cc	-0.063432306
29	0xbc9d5f2f	-0.019210426
30	0xbe3f9281	-0.1870823
31	0x3e0bf22f	0.13666604
32	0x3cfa546b	0.030557832
33	0x3d2ced10	0.042218268
34	0x3dedbf64	0.116087705
35	0x3d860479	0.06543822
36	0xbd8ba747	-0.06819015
37	0x3be47b97	0.006972741
38	0xbcf982a1	-0.030457797
39	0x3a2aa37d	0.0006509347
40	0x3d5bba47	0.053644445
41	0xbc08990a	-0.008337269
42	0xbd7cbea6	-0.061705254
43	0x3d84b0f8	0.064790666
44	0x3c09ac8e	0.008402957
45	0x3d977335	0.07395021
46	0x3ccde660	0.025134265
47	0xbc9e1c2a	-0.019300539
48	0xbda988b2	-0.08278026
49	0xbd4b8df7	-0.049695935
50	0xbd37f9fb	-0.044916134
51	0xbc880b9d	-0.0166071
52	0xbd61a475	-0.05508848
53	0x3c9ff015	0.01952366
54	0xbad20d0d	-0.0016025618
55	0x3d88c60b	0.06678399
56	0xbc11265d	-0.008859244
57	0xbd4f5a44	-0.050623193
58	0xbd661a5a	-0.056177475
59	0x3d24dbfb	0.040248852
60	0x3d35a54f	0.044347104
61	0xbd3d01c7	-0.046144273
62	0xbe1174cc	-0.1420471
63	0x3d7bb6a9	0.061453495

layer3.bias f4 [2]
0	0x3c9dafb8	0.019248828
1	0x3b5ddfff	0.0033855436

exp_avg f4 [32, 48]
0	0xb766486c	-1.372593e-05
1	0xb7a2728e	-1.9365249e-05
2	0xb7027702	-7.7763125e-06
3	0x3785b149	1.593739e-05
4	0xb84b15a6	-4.8419133e-05
5	0xb726d28a	-9.943391e-06
6	0xb740b8a8	-1.1487085e-05
7	0xb73dfa8a	-1.1323611e-05
8	0xb7273ec3	-9.9685885e-06
9	0x37d60688	2.551383e-05
10	0xb727f641	-1.0011311e-05
11	0xb8032f4f	-3.1276893e-05
12	0x37c2ccc1	2.3221948e-05
13	0x382eb66d	4.165473e-05
14	0x37c16d63	2.305833e-05
15	0x38305d89	4.204878e-05
16	0xb7a044f9	-1.9105604e-05
17	0x383003a1	4.196505e-05
18	0x3588a313	1.018025e-06
19	0xb837cdca	-4.3822256e-05
20	0x380b7f4d	3.325874e-05
21	0x37ffbd82	3.0486615e-05
22	0xb7918a29	-1.7349683e-05
23	0xb7140013	-8.821505e-06
24	0x370931d5	8.177439e-06
25	0xb6b66bb9	-5.4365632e-06
26	0x37722d3c	1.4434856e-05
27	0x378dbaaf	1.6895441e-05
28	0xb72c155a	-1.025697e-05
29	0xb4d03022	-3.877804e-07
30	0x37a8bd19	2.0115216e-05
31	0x3523b38e	6.098352e-07
32	0xb6552162	-3.1758905e-06
33	0xb6eaaa5e	-6.993577e-06
34	0xb6f33352	-7.247939e-06
35	0x36d51034	6.349781e-06
36	0x37475fb9	1.18836115e-05
37	0xb7adff11	-2.0741982e-05
38	0xb600c822	-1.918998e-06
39	0xb81c6950	-3.729138e-05
40	0x37bb13e8	2.2301407e-05
41	0xb7c25925	-2.3168113e-05
42	0x3741630c	1.1526758e-05
43	0x36b03c59	5.252234e-06
44	0xb6c1b93d	-5.773413e-06
45	0x37d9c646	2.5960744e-05
46	0xb5f55c72	-1.8280828e-06
47	0xb725e8c8	-9.888965e-06
48	0xb6ba8d96	-5.5597147e-06
49	0xb6f3f9a2	-7.2710254e-06
50	0x370c9d9d	8.3813475e-06
51	0x371a6a72	9.203899e-06
52	0xb6c438f0	-5.8478836e-06
53	0xb69f6bc7	-4.751116e-06
54	0xb75a6b2c	-1.30187655e-05
55	0xb71edfd3	-9.469647e-06
56	0xb6c78695	-5.9463296e-06
57	0x37486585	1.1944566e-05
58	0x3700b732	7.672048e-06
59	0xb5103eeb	-5.373574e-07
60	0xb5a07d15	-1.1957333e-06
61	0xb5d04de3	-1.5519876e-06
62	0x36c72e85	5.9360777e-06
63	0x37106caf	8.608374e-06
64	0xb6bf324f	-5.6981003e-06
65	0x36d52506	6.3522048e-06
66	0xb65944f8	-3.2375665e-06
67	0xb74fe9ae	-1.2392569e-05
68	0x37aae34a	2.0371419e-05
69	0x375dd845	1.3222981e-05
70	0xb7219adb	-9.632403e-06
71	0xb5c76b28	-1.4857842e-06
72	0xb5e40c0f	-1.6990833e-06
73	0xb6983645	-4.536271e-06
74	0x365eba8c	3.3189162e-06
75	0x36b9d080	5.5377022e-06
76	0xb69b2ebb	-4.6248e-06
77	0xb72d05ad	-1.0312925e-05
78	0x36baa545	5.562472e-06
79	0x3710aefc	8.623811e-06
80	0xb738d836	-1.1017595e-05
81	0xb74ef3cf	-1.2335323e-05
82	0xb71896a8	-9.094983e-06
83	0x37520b68	1.2519631e-05
84	0xb6983a51	-4.536742e-06
85	0xb77b3a8b	-1.4974396e-05
86	0x36c20fe7	5.783502e-06
87	0xb7ade7cb	-2.0731144e-05
88	0x352baf48	6.395753e-07
89	0xb793a069	-1.7598462e-05
90	0x369da485	4.698117e-06
91	0x36c9c637	6.013342e-06
92	0x3708ed3a	8.161465e-06
93	0x36e7f790	6.9131565e-06
94	0x363cc9e0	2.813169e-06
95	0x3657d26d	3.215998e-06
96	0x36817979	3.858641e-06
97	0x36426bcd	2.8971e-06
98	0x363821e5	2.7437866e-06
99	0xb4d3d574	-3.945712e-07
100	0xb61696b2	-2.2439458e-06
101	0xb4d5dce1	-3.9835052e-07
102	0x35f01eef	1.7890396e-06
103	0x36938785	4.396718e-06
104	0xb757b097	-1.2856114e-05
105	0x37803a06	1.5285808e-05
106	0x3711fcd1	8.701537e-06
107	0xb6d74d77	-6.4165174e-06
108	0xb6b408ab	-5.365427e-06
109	0x36e50898	6.8257323e-06
110	0xb7376582	-1.0931284e-05
111	0xb68206f9	-3.8751136e-06
112	0xb75e5522	-1.3252053e-05
113	0xb71e362a	-9.430145e-06
114	0xb7891df3	-1.6345619e-05
115	0x361193b6	2.1692663e-06
116	0x373112db	1.0554412e-05
117	0x368ee3eb	4.258463e-06
118	0xb4159700	-1.393164e-07
119	0x358b1a40	1.0363947e-06
120	0xb5bc5b53	-1.403367e-06
121	0x3604a3e1	1.9764923e-06
122	0x35604bcb	8.3556796e-07
123	0xb68b36a6	-4.1488847e-06
124	0xb771534f	-1.4384116e-05
125	0x36e8a274	6.933051e-06
126	0x371b2c7b	9.249076e-06
127	0xb74f5d89	-1.2359939e-05
128	0xb706301a	-7.998222e-06
129	0xb63fecc7	-2.859904e-06
130	0xb64c1f93	-3.0416747e-06
131	0x37511988	1.2463315e-05
132	0xb78bc442	-1.6661481e-05
133	0xb5845d71	-9.861961e-07
134	0x37a71669	1.9918387e-05
135	0xb695efda	-4.4684684e-06
136	0xb7935b81	-1.7566375e-05
137	0x37500bdb	1.2400526e-05
138	0xb564b967	-8.5206415e-07
139	0x36d26194	6.2698473e-06
140	0x36441196	2.9216512e-06
141	0x369a1fd0	4.593261e-06
142	0x366cbfb1	3.527832e-06
143	0x36101dd8	2.1475043e-06
144	0xb5878ad4	-1.0098688e-06
145	0x3603da90	1.9647741e-06
146	0x3586109e	9.988614e-07
147	0x351b5c60	5.7876423e-07
148	0x36e7fe88	6.913968e-06
149	0xb1d64204	-6.235725e-09
150	0x36e75228	6.8939007e-06
151	0xb6a5a2ee	-4.9363507e-06
152	0xb7647ad5	-1.3618458e-05
153	0xb56d1661	-8.8321946e-07
154	0xb5f5fe8f	-1.8328009e-06
155	0x373c99e4	1.1241504e-05
156	0x343bc628	1.7487821e-07
157	0xb793327b	-1.7547272e-05
158	0xb766630b	-1.37321285e-05
159	0xb7731ff7	-1.4491371e-05
160	0x37482325	1.1929112e-05
161	0xb74b4ba2	-1.21173525e-05
162	0x362480e4	2.4512929e-06
163	0x372a60de	1.0155343e-05
164	0xb71228e8	-8.711802e-06
165	0x365adb13	3.261205e-06
166	0xb7134b2b	-8.779384e-06
167	0x375c866f	1.3144322e-05
168	0xb794fb24	-1.7759921e-05
169	0xb6f2f14a	-7.2402518e-06
170	0x36926c75	4.363765e-06
171	0xb6f90701	-7.4215936e-06
172	0x37026e30	7.774259e-06
173	0xb7828280	-1.5557976e-05
174	0xb7b9dde0	-2.2157037e-05
175	0x37f2e662	2.8955928e-05
176	0xb7335d43	-1.0690946e-05
177	0xb7228aab	-9.688239e-06
178	0xb70a2bb3	-8.2356155e-06
179	0xb71086d3	-8.61446e-06
180	0xb73dd5b9	-1.1315039e-05
181	0x377313e9	1.4488564e-05
182	0x36127af3	2.1827261e-06
183	0x3702453b	7.764723e-06
184	0xb77ffbb6	-1.525779e-05
185	0x378d967d	1.6878586e-05
186	0x364ae8f9	3.0235954e-06
187	0x36f51c32	7.3048514e-06
188	0x360d31b7	2.1039575e-06
189	0xb6e00328	-6.6760877e-06
190	0x371c9ec9	9.335295e-06
191	0x36b49701	5.381997e-06
192	0x36eebe60	7.1151153e-06
193	0xb671a4bd	-3.6007689e-06
194	0x378c7c39	1.6747146e-05
195	0x3751c531	1.2503283e-05
196	0xb76f3b2f	-1.425929e-05
197	0xb6480160	-2.9803123e-06
198	0xb75f5604	-1.3311863e-05
199	0xb67ae901	-3.738853e-06
200	0x36e499e0	6.812843e-06
201	0xb653782a	-3.1511395e-06
202	0xb6c05447	-5.731857e-06
203	0xb62e8233	-2.6003806e-06
204	0xb74b07f0	-1.2101591e-05
205	0x370bf4c9	8.342039e-06
206	0x3788a77b	1.6290453e-05
207	0xb6e17d53	-6.720112e-06
208	0x37b679c4	2.1752792e-05
209	0x37832adb	1.5636373e-05
210	0x37d9b6f7	2.5953615e-05
211	0x3636cd28	2.723953e-06
212	0xb733e6fb	-1.0723011e-05
213	0x380b445b	3.3203843e-05
214	0xb7c15ee8	-2.3051587e-05
215	0x3761fe3d	1.34702395e-05
216	0xb6fd7ae8	-7.5542957e-06
217	0xb63e8d4d	-2.8394454e-06
218	0x3744717b	1.1708932e-05
219	0x3702dcfd	7.800057e-06
220	0x36944728	4.4190274e-06
221	0x358c32ed	1.0445634e-06
222	0x36df94b3	6.6632288e-06
223	0xb6c0cf6e	-5.746194e-06
224	0xb5ebd843	-1.7571805e-06
225	0x351712e2	5.627936e-07
226	0x36ea05f9	6.9744387e-06
227	0xb76d4363	-1.41419905e-05
228	0x37bad6a7	2.2272883e-05
229	0xb71677ab	-8.968559e-06
230	0xb788c593	-1.6304466e-05
231	0x368e4091	4.2394463e-06
232	0x379cdefa	1.870048e-05
233	0xb7186ca3	-9.0852e-06
234	0x3649e5f2	3.008518e-06
235	0x3601aafb	1.9322022e-06
236	0x3666a32f	3.4367656e-06
237	0x36933a87	4.387755e-06
238	0x35355a1f	6.75589e-07
239	0xb68f7481	-4.275295e-06
240	0xb719ea67	-9.174087e-06
241	0x368b840e	4.157896e-06
242	0x37410a26	1.1506059e-05
243	0xb72bfab2	-1.0250764e-05
244	0x37758ed8	1.4636396e-05
245	0x35077f80	5.0476956e-07
246	0x3586e448	1.0050217e-06
247	0xb5cda334	-1.5321189e-06
248	0x3677d105	3.6927534e-06
249	0xb79f9434	-1.902329e-05
250	0xb71b4dca	-9.256832e-06
251	0xb6f4c0e7	-7.2942235e-06
252	0xb50b8d6c	-5.198733e-07
253	0x3715eec9	8.936689e-06
254	0xb56c15cd	-8.7948575e-07
255	0xb740886c	-1.1475855e-05

exp_avg_sq f4 [32, 48]
0	0x31d5c569	6.221559e-09
1	0x3162cc34	3.3003404e-09
2	0x318f44ed	4.1696837e-09
3	0x31926134	4.26021e-09
4	0x3163435a	3.3071132e-09
5	0x31473c24	2.8992497e-09
6	0x318a67fe	4.028151e-09
7	0x3164f0d6	3.3315266e-09
8	0x31a7557f	4.8700595e-09
9	0x31991135	4.4548423e-09
10	0x31a8ec5c	4.9163145e-09
11	0x316247ba	3.29281e-09
12	0x3186048c	3.90043e-09
13	0x317dc9ae	3.6930987e-09
14	0x315958cd	3.1628133e-09
15	0x3193f171	4.305712e-09
16	0x31a62f07	4.8365822e-09
17	0x31682e16	3.378664e-09
18	0x31d6cef0	6.251746e-09
19	0x3176228f	3.5817356e-09
20	0x31c52b9e	5.7384133e-09
21	0x3180fb07	3.753829e-09
22	0x316cac13	3.4440333e-09
23	0x315c949b	3.2098686e-09
24	0x313f3e05	2.7829412e-09
25	0x315dcc2d	3.2275793e-09
26	0x31440f69	2.8530514e-09
27	0x3155bdb9	3.1103424e-09
28	0x3189fbde	4.0158588e-09
29	0x31bd1ec2	5.5041207e-09
30	0x31c17622	5.6304694e-09
31	0x3180bd09	3.746781e-09
32	0x319ec2fd	4.620573e-09
33	0x3165f888	3.346516e-09
34	0x318f9a1f	4.1793693e-09
35	0x31976cfd	4.407069e-09
36	0x3174861b	3.5582903e-09
37	0x31c6189a	5.7653553e-09
38	0x31810038	3.754419e-09
39	0x31e7f01d	6.7502826e-09
40	0x3173bd21	3.5468661e-09
41	0x31c667e3	5.774369e-09
42	0x3149a23e	2.9341574e-09
43	0x3187d74e	3.9534944e-09
44	0x3151ee0a	3.0548812e-09
45	0x31815a94	3.7646917e-09
46	0x313ef399	2.7787108e-09
47	0x3158ed97	3.156719e-09
48	0x30fcb513	1.8386878e-09
49	0x30bbc0d9	1.3660851e-09
50	0x30b96e5a	1.3491885e-09
51	0x306ae6d1	8.5456714e-10
52	0x30969584	1.0956431e-09
53	0x30b1511b	1.2901497e-09
54	0x30a1737c	1.1747114e-09
55	0x30ce808a	1.5025006e-09
56	0x3147762a	2.902548e-09
57	0x312a8aca	2.4817148e-09
58	0x311f3b25	2.3171165e-09
59	0x3175e6fe	3.5783496e-09
60	0x313f0ef2	2.7802654e-09
61	0x313195de	2.584208e-09
62	0x30baf01e	1.3601527e-09
63	0x3116c758	2.1941187e-09
64	0x30d9c921	1.5845992e-09
65	0x31039fa8	1.9153763e-09
66	0x31355a4a	2.639029e-09
67	0x30dbf46d	1.6003817e-09
68	0x313cb4ba	2.7460332e-09
69	0x3112559c	2.129446e-09
70	0x30b2d1f1	1.3010873e-09
71	0x30ac7093	1.2546643e-09
72	0x30c87518	1.4585195e-09
73	0x30c61019	1.4410971e-09
74	0x30a595fa	1.2047956e-09
75	0x30f91602	1.812339e-09
76	0x3080a9c7	9.361479e-10
77	0x3129f8c0	2.4734135e-09
78	0x3127474a	2.4342222e-09
79	0x30efb712	1.744157e-09
80	0x30ada927	1.2635483e-09
81	0x30ef7972	1.7424056e-09
82	0x30b0aa31	1.2854057e-09
83	0x30f4bb25	1.7806526e-09
84	0x31105cff	2.100762e-09
85	0x30f38202	1.7717527e-09
86	0x3105ad72	1.945264e-09
87	0x31193501	2.229456e-09
88	0x30db8ddb	1.5974665e-09
89	0x3141e786	2.8216802e-09
90	0x30eb17e2	1.7105288e-09
91	0x300d7e64	5.1475113e-10
92	0x307fbd51	9.3037494e-10
93	0x3084d9ce	9.666168e-10
94	0x30d3214e	1.5361736e-09
95	0x3080dfa2	9.376786e-10
96	0x30bef47a	1.3893804e-09
97	0x30affc23	1.2804587e-09
98	0x30990a0f	1.1135074e-09
99	0x3087d596	9.883248e-10
100	0x30df34be	1.6240376e-09
101	0x3093babe	1.0748733e-09
102	0x30c3a92c	1.4236199e-09
103	0x30f832b4	1.8058786e-09
104	0x30cc9875	1.4886284e-09
105	0x30ea0651	1.7027536e-09
106	0x30a3c41b	1.1915547e-09
107	0x30a42e92	1.1945807e-09
108	0x306577d4	8.348e-10
109	0x30a6468b	1.2098139e-09
110	0x30da4dc6	1.5883692e-09
111	0x30b1226d	1.2888229e-09
112	0x31408d1f	2.8019895e-09
113	0x30b9ccf1	1.3518769e-09
114	0x3171f1f7	3.5207657e-09
115	0x30a2433b	1.1806159e-09
116	0x312bd2de	2.500364e-09
117	0x3148e584	2.9234295e-09
118	0x310bd0be	2.0345818e-09
119	0x310f9488	2.089367e-09
120	0x3115cf3b	2.180015e-09
121	0x31033836	1.9094961e-09
122	0x30e44c80	1.6610926e-09
123	0x311eaa7b	2.3088933e-09
124	0x31181e0c	2.213599e-09
125	0x31148ccf	2.1616875e-09
126	0x311894a9	2.2203415e-09
127	0x30ec8e94	1.7211783e-09
128	0x30a42d0d	1.1945375e-09
129	0x309cd7c5	1.1411819e-09
130	0x30d4ed7d	1.5492528e-09
131	0x30fd7851	1.8442369e-09
132	0x30e1f7c8	1.6441328e-09
133	0x311c26c0	2.2723015e-09
134	0x30f8cc3a	1.810242e-09
135	0x316ff172	3.4916323e-09
136	0x30f6a9e4	1.7947142e-09
137	0x3152c90b	3.0673302e-09
138	0x310e5ab4	2.0715278e-09
139	0x30d2ea65	1.534613e-09
140	0x30d66e70	1.5601938e-09
141	0x30b46ab8	1.3127055e-09
142	0x31129797	2.1331965e-09
143	0x30db546d	1.5958342e-09
144	0x31217848	2.3496955e-09
145	0x310b930b	2.0310746e-09
146	0x30c546a6	1.4353716e-09
147	0x30cf1821	1.506809e-09
148	0x3118a5bb	2.2213118e-09
149	0x30ea23e4	1.7035942e-09
150	0x30d830ac	1.5729902e-09
151	0x3106b1ea	1.9600699e-09
152	0x312ffad1	2.5608424e-09
153	0x3159ccc0	3.1694043e-09
154	0x309649fe	1.0934966e-09
155	0x31057b41	1.942411e-09
156	0x30c63946	1.4422674e-09
157	0x30a7077f	1.215298e-09
158	0x312294d1	2.3658695e-09
159	0x315b22b2	3.1888416e-09
160	0x31026b60	1.8978525e-09
161	0x31398a6a	2.6999722e-09
162	0x318a0c2d	4.017713e-09
163	0x31285e40	2.4500793e-09
164	0x3179efc6	3.6370564e-09
165	0x317453f8	3.5554404e-09
166	0x312e0140	2.5321043e-09
167	0x3113bcb9	2.1498592e-09
168	0x313ab453	2.7169065e-09
169	0x31128496	2.1321163e-09
170	0x3114e103	2.166474e-09
171	0x3147a826	2.9053893e-09
172	0x31213d21	2.3463331e-09
173	0x312efef8	2.5465265e-09
174	0x31689173	3.3843122e-09
175	0x315f0dd7	3.2458638e-09
176	0x3092e2a4	1.0687313e-09
177	0x3106a490	1.959311e-09
178	0x311aeb49	2.2543694e-09
179	0x31067939	1.9568474e-09
180	0x30c525e2	1.4344403e-09
181	0x318601e1	3.900127e-09
182	0x30d2dd64	1.5342434e-09
183	0x319eff44	4.6274256e-09
184	0x30c874a4	1.4585066e-09
185	0x313496b0	2.6279103e-09
186	0x311af2e4	2.2548017e-09
187	0x311df094	2.298326e-09
188	0x30e18332	1.6408193e-09
189	0x30a0e227	1.1705809e-09
190	0x30e95ca8	1.6979316e-09
191	0x310c965d	2.0458153e-09
192	0x315c8a94	3.2092986e-09
193	0x31474b42	2.900109e-09
194	0x310b48a3	2.0268451e-09
195	0x310636ca	1.953071e-09
196	0x313a34e1	2.709662e-09
197	0x311d0631	2.2850026e-09
198	0x3127b6ff	2.440572e-09
199	0x3139a0ec	2.7012517e-09
200	0x3186c47c	3.922251e-09
201	0x3186c2d5	3.922063e-09
202	0x313f2ba5	2.7818967e-09
203	0x318d0db8	4.1051997e-09
204	0x317027e5	3.4947274e-09
205	0x31522027	3.0577298e-09
206	0x3127685f	2.4361027e-09
207	0x312a2a70	2.4762379e-09
208	0x31969d2b	4.3834425e-09
209	0x3150b48f	3.037062e-09
210	0x31db810c	6.38841e-09
211	0x3126d0ee	2.4274942e-09
212	0x31a94d94	4.927367e-09
213	0x317f16a8	3.7120262e-09
214	0x3128c683	2.4560058e-09
215	0x314ec856	3.0090823e-09
216	0x313e15f6	2.7661122e-09
217	0x3142d677	2.8352625e-09
218	0x310e2d25	2.0689381e-09
219	0x313eb512	2.7751565e-09
220	0x3120f9de	2.3425097e-09
221	0x31860711	3.9007166e-09
222	0x319ea530	4.617185e-09
223	0x314b7905	2.960918e-09
224	0x315097ac	3.03542e-09
225	0x3124a3c5	2.3958233e-09
226	0x31310ba0	2.5763498e-09
227	0x31565fca	3.1195548e-09
228	0x3181bc15	3.7757766e-09
229	0x3157bf9c	3.1395535e-09
230	0x3168378d	3.379202e-09
231	0x319dad92	4.589034e-09
232	0x31534ee0	3.0749376e-09
233	0x317d5c87	3.6868941e-09
234	0x3136931b	2.6568105e-09
235	0x30b95b49	1.3486466e-09
236	0x31141541	2.1548916e-09
237	0x311e171c	2.3005162e-09
238	0x31588d1d	3.151235e-09
239	0x310b5f03	2.028117e-09
240	0x3121f6f5	2.3568962e-09
241	0x31042e4a	1.923484e-09
242	0x311a0d9b	2.2417683e-09
243	0x30c9e81d	1.4690645e-09
244	0x31284228	2.4484823e-09
245	0x30ea83ff	1.7063256e-09
246	0x310758f5	1.9695652e-09
247	0x316ce762	3.4474046e-09
248	0x317545c9	3.569186e-09
249	0x315e3e7c	3.234077e-09
250	0x31057e76	1.9425932e-09
251	0x3156da80	3.1265301e-09
252	0x310a7f01	2.0153836e-09
253	0x31241d4b	2.3881792e-09
254	0x315e75c0	3.2372185e-09
255	0x318e4609	4.140706e-09

exp_avg f4 [32]
0	0x37ccb595	2.440325e-05
1	0x36ec6f76	7.046324e-06
2	0x34842f63	2.4621394e-07
3	0xb6c5d329	-5.89564e-06
4	0x36a58ac3	4.933537e-06
5	0xb5d887b4	-1.6132749e-06
6	0x36825c3c	3.8850394e-06
7	0x364abd2c	3.0210458e-06
8	0x351f40c6	5.9326374e-07
9	0x361a0841	2.2952593e-06
10	0x35e8c656	1.734307e-06
11	0xb735f26d	-1.0844885e-05
12	0x371572eb	8.9078485e-06
13	0x369162dc	4.3328455e-06
14	0x3781e977	1.5486714e-05
15	0x36cfedfa	6.196785e-06
16	0xb61b677d	-2.3157038e-06
17	0x350f166c	5.330428e-07
18	0xb7918c3b	-1.7350647e-05
19	0xb79ba8d0	-1.855605e-05
20	0x378b18ff	1.6581731e-05
21	0xb58999fb	-1.025211e-06
22	0xb749911d	-1.201432e-05
23	0xb5fff2da	-1.906966e-06
24	0xb534d143	-6.735974e-07
25	0x374636dd	1.18144935e-05
26	0xb75c599b	-1.3133885e-05
27	0xb59b7dc9	-1.1585008e-06
28	0x3708dc92	8.157587e-06
29	0x369dcc80	4.7027715e-06
30	0xb7954c52	-1.7797724e-05
31	0x37342bbb	1.0739018e-05

exp_avg_sq f4 [32]
0	0x31c63791	5.7688756e-09
1	0x31080593	1.9793773e-09
2	0x31406731	2.7998335e-09
3	0x3155f7f7	3.1136531e-09
4	0x3180ccfc	3.7485943e-09
5	0x319c568f	4.550038e-09
6	0x30763203	8.956535e-10
7	0x31cc1798	5.9398637e-09
8	0x312c069f	2.5033058e-09
9	0x30da4b34	1.5882962e-09
10	0x319ecf64	4.621983e-09
11	0x31d2fddc	6.140665e-09
12	0x310b1da5	2.0244013e-09
13	0x31c1250a	5.62125e-09
14	0x3223676c	9.511364e-09
15	0x3185de08	3.8960515e-09
16	0x323f9b67	1.1152998e-08
17	0x3107319e	1.967329e-09
18	0x31955e21	4.347172e-09
19	0x3125bf40	2.4119373e-09
20	0x315b1feb	3.1886838e-09
21	0x3138e5e6	2.6906206e-09
22	0x31e84eef	6.7610624e-09
23	0x316c7830	3.4410839e-09
24	0x3146378c	2.8844367e-09
25	0x3199a2b2	4.4713824e-09
26	0x30d78275	1.5680387e-09
27	0x3117378a	2.2004962e-09
28	0x31b9ee78	5.4113194e-09
29	0x31831f00	3.816126e-09
30	0x313f37e6	2.7825933e-09
31	0x330e443a	3.3124003e-08

exp_avg f4 [32, 32]
0	0x3604c71e	1.9785434e-06
1	0x35928173	1.0915522e-06
2	0xb62f8102	-2.6152125e-06
3	0xb5ad4d63	-1.2912027e-06
4	0xb68d47db	-4.2104925e-06
5	0xb606c5e9	-2.0082755e-06
6	0x34835973	2.4465734e-07
7	0xb6e9fd37	-6.973419e-06
8	0x355a5b99	8.134462e-07
9	0xb65fcdf1	-3.3349463e-06
10	0x3546f77c	7.4120885e-07
11	0x35ae1dd6	1.2972694e-06
12	0x35c02682	1.4316322e-06
13	0x37876f78	1.614516e-05
14	0xb7313a8e	-1.0563655e-05
15	0xb71d5650	-9.378025e-06
16	0xb5d40f3b	-1.5799664e-06
17	0x361336e0	2.1936648e-06
18	0x34b19db2	3.3083558e-07
19	0x3667e22d	3.4553334e-06
20	0xb648c39b	-2.991618e-06
21	0x35ce8266	1.5386147e-06
22	0x3610c46b	2.1572002e-06
23	0xb4bd07dd	-3.5209715e-07
24	0x36df1482	6.6483053e-06
25	0xb76339b1	-1.3543687e-05
26	0xb6b76592	-5.4656493e-06
27	0x34bd774b	3.529079e-07
28	0x35d56a92	1.5900753e-06
29	0x37131585	8.766893e-06
30	0xb68ac7e7	-4.135992e-06
31	0x34ee8147	4.4425016e-07
32	0xb5b5b2fc	-1.3537642e-06
33	0x3787b53e	1.6177652e-05
34	0x368980c2	4.0979075e-06
35	0xb767bdee	-1.3812894e-05
36	0x382773ae	3.9923638e-05
37	0xb74da3a7	-1.22570555e-05
38	0xb5d34890	-1.5741844e-06
39	0xb75d3a11	-1.3186146e-05
40	0x363a42a1	2.7754943e-06
41	0xb714d6f2	-8.871533e-06
42	0x364d63d7	3.0605495e-06
43	0x36e3d5cf	6.790018e-06
44	0x3617dbe0	2.2628737e-06
45	0x368b7a5e	4.1567682e-06
46	0x351ca10b	5.8348877e-07
47	0xb5cd137f	-1.5279364e-06
48	0x370069f2	7.654062e-06
49	0x37ae9753	2.0812882e-05
50	0x3714dd46	8.873007e-06
51	0xb7265cca	-9.915975e-06
52	0xb7b45187	-2.1495636e-05
53	0x36ab0f8f	5.0980084e-06
54	0x35c5b89b	1.4731371e-06
55	0x355f99a4	8.329755e-07
56	0x3723f052	9.771511e-06
57	0xb70f8af9	-8.555821e-06
58	0x36dc8b26	6.57271e-06
59	0xb7786588	-1.48055915e-05
60	0xb73ee9f2	-1.1379352e-05
61	0x3729704e	1.0099333e-05
62	0x37742491	1.4552047e-05
63	0xb7f2d1dd	-2.8946373e-05
64	0xb6531283	-3.1452225e-06
65	0xb5130a8d	-5.477712e-07
66	0x360cd9c4	2.0988382e-06
67	0xb6de0718	-6.6169414e-06
68	0xb5d7c6d6	-1.6076617e-06
69	0xb4f58231	-4.5729533e-07
70	0x35df19f8	1.6622353e-06
71	0xb7ef469a	-2.8523897e-05
72	0xb71ac604	-9.225219e-06
73	0x36154631	2.2243587e-06
74	0x345de701	2.0666268e-07
75	0x3744150e	1.1687413e-05
76	0xb7bd2aa8	-2.2550419e-05
77	0x35c24217	1.4473361e-06
78	0xb78478e9	-1.579193e-05
79	0x364ed3e5	3.081973e-06
80	0x373f6f15	1.141035e-05
81	0xb786a68f	-1.6051605e-05
82	0x35cd9641	1.531742e-06
83	0x359c7032	1.1655559e-06
84	0xb64fc428	-3.0959582e-06
85	0x360befb7	2.0852146e-06
86	0x356e0c1a	8.867952e-07
87	0x346df9f5	2.2163279e-07
88	0xb63d1d3e	-2.8180216e-06
89	0x3795817b	1.7822478e-05
90	0xb89cadb5	-7.471015e-05
91	0x374ce6db	1.2213098e-05
92	0xb76ff231	-1.43019e-05
93	0x35e2757c	1.6872505e-06
94	0xb7a1b7d0	-1.927829e-05
95	0x368872e7	4.0664922e-06
96	0x36fa1b76	7.4537775e-06
97	0xb7434709	-1.1639445e-05
98	0xb603992a	-1.9609674e-06
99	0xb54caff2	-7.6251956e-07
100	0x37c5d2ed	2.358245e-05
101	0x36619269	3.3612835e-06
102	0x36963841	4.476897e-06
103	0xb70056b8	-7.649585e-06
104	0xb6c40bcd	-5.842629e-06
105	0x36da26fe	6.5014456e-06
106	0x3726412e	9.909547e-06
107	0x3775c902	1.4649939e-05
108	0xb73ad90f	-1.1137002e-05
109	0x36cccd5a	6.10358e-06
110	0x36d22368	6.2626095e-06
111	0x36e2a281	6.754243e-06
112	0x37490fa9	1.198418e-05
113	0x35c1f6b5	1.4451422e-06
114	0xb6cf4bfe	-6.1779274e-06
115	0xb71bbe9d	-9.283101e-06
116	0x364ced25	3.0536405e-06
117	0xb618191f	-2.2664387e-06
118	0x36cf086b	6.1700607e-06
119	0x361061a3	2.1514504e-06
120	0x3782bf90	1.558641e-05
121	0x379d5316	1.8754548e-05
122	0xb82c1d33	-4.103519e-05
123	0x378efb3b	1.7044707e-05
124	0xb7706f32	-1.4331004e-05
125	0x379b1c5e	1.849065e-05
126	0x370210ba	7.752498e-06
127	0x37d4044c	2.527437e-05
128	0x35ed51d0	1.7681687e-06
129	0x3796e136	1.7986265e-05
130	0x36a10e34	4.7998274e-06
131	0xb6bd2175	-5.636534e-06
132	0xb7b76315	-2.1861439e-05
133	0xb756c584	-1.2801382e-05
134	0xb756c518	-1.2801283e-05
135	0xb6694f8e	-3.4766013e-06
136	0x352a433f	6.342779e-07
137	0xb758f831	-1.293239e-05
138	0xb6d33ff9	-6.2957374e-06
139	0xb78ee731	-1.7035376e-05
140	0x374a3f4c	1.2054876e-05
141	0xb7a46bc3	-1.9600504e-05
142	0xb7852cd0	-1.5875703e-05
143	0xb771a84d	-1.4403905e-05
144	0xb836e131	-4.3601907e-05
145	0xb74c21b9	-1.2167199e-05
146	0x36a718de	4.9798828e-06
147	0x37cfa08c	2.4751083e-05
148	0xb7c168de	-2.3056225e-05
149	0xb688a9d1	-4.072885e-06
150	0xb724940c	-9.809632e-06
151	0x366fdce3	3.5742348e-06
152	0xb7e3ad00	-2.7141068e-05
153	0xb79be651	-1.858469e-05
154	0x37c2b17e	2.3209253e-05
155	0xb78c1b67	-1.670206e-05
156	0x36c1506d	5.761211e-06
157	0xb71801cb	-9.0603235e-06
158	0xb7ea6344	-2.7941198e-05
159	0xb80f9b92	-3.4238743e-05
160	0x363bf65f	2.8008578e-06
161	0x36df0f99	6.6477337e-06
162	0x33e6a719	1.07406045e-07
163	0xb72a295e	-1.0142421e-05
164	0xb73797be	-1.094298e-05
165	0xb790b37e	-1.724972e-05
166	0x36ce4661	6.1474716e-06
167	0xb6dc96a9	-6.57405e-06
168	0x340e5d7d	1.3258791e-07
169	0x358d33be	1.0520378e-06
170	0xb74287c8	-1.1594915e-05
171	0xb6ebfa1d	-7.032663e-06
172	0x36caa5d9	6.0393763e-06
173	0x35c6d6ab	1.4814626e-06
174	0xb6bb52f5	-5.5826918e-06
175	0x36b4cf01	5.3885165e-06
176	0xb522b76a	-6.0616605e-07
177	0x3672f833	3.620528e-06
178	0xb5af81d9	-1.3076307e-06
179	0xb74faa2b	-1.2377782e-05
180	0xb756621c	-1.2778237e-05
181	0xb5114108	-5.411134e-07
182	0x364b4212	3.0287815e-06
183	0xb60696eb	-2.0055402e-06
184	0x35a6190f	1.2375257e-06
185	0xb61e4c0c	-2.35881e-06
186	0xb640d0a9	-2.8731686e-06
187	0xb66ff14c	-3.5754229e-06
188	0xb74f8daa	-1.2371145e-05
189	0x35c8d43a	1.4962927e-06
190	0xb7039e6d	-7.845095e-06
191	0xb80535e8	-3.1759875e-05
192	0xb70d6ee7	-8.430076e-06
193	0xb707bcd0	-8.090588e-06
194	0x366977db	3.478947e-06
195	0x35dbe628	1.6383756e-06
196	0xb7671b8c	-1.3775087e-05
197	0x3592da53	1.0941388e-06
198	0x36b37fd5	5.3494973e-06
199	0x36ce90d0	6.156137e-06
200	0xb5113f50	-5.410884e-07
201	0x3725d847	9.885122e-06
202	0xb7cf0349	-2.4677853e-05
203	0xb72900c3	-1.0073362e-05
204	0x35afb891	1.3092232e-06
205	0x37257b39	9.863456e-06
206	0xb49abb5c	-2.8821057e-07
207	0xb550f199	-7.783761e-07
208	0xb62d3d91	-2.5814845e-06
209	0xb61ea44f	-2.3639475e-06
210	0xb7afb396	-2.0945252e-05
211	0xb737efb3	-1.0963459e-05
212	0x34c20676	3.6140017e-07
213	0xb59f1d2b	-1.1854912e-06
214	0xb6c26358	-5.7932157e-06
215	0xb6b42d16	-5.3696667e-06
216	0xb4fbace4	-4.6878188e-07
217	0x37bc0c87	2.241718e-05
218	0xb6a064be	-4.7800995e-06
219	0x37363091	1.0859353e-05
220	0xb5414df2	-7.201153e-07
221	0xb808eb60	-3.2644137e-05
222	0xb7339454	-1.0703767e-05
223	0xb6233215	-2.4318044e-06
224	0xb781045d	-1.538003e-05
225	0xb78529ef	-1.5874362e-05
226	0xb6508361	-3.1070888e-06
227	0xb70b0ccf	-8.288028e-06
228	0xb8002fd8	-3.0562136e-05
229	0x36bc3b51	5.609742e-06
230	0xb50c699e	-5.230776e-07
231	0xb71ffd7c	-9.536157e-06
232	0x3537892e	6.8372435e-07
233	0x370f5d6b	8.545215e-06
234	0xb709e63a	-8.21944e-06
235	0xb69ee52f	-4.7354474e-06
236	0xb76538e0	-1.3662706e-05
237	0x360c06db	2.0865616e-06
238	0xb72b31de	-1.0204005e-05
239	0xb5f9424a	-1.8571238e-06
240	0x3615dd43	2.2331521e-06
241	0xb7510ab1	-1.245986e-05
242	0xb70f11ce	-8.52761e-06
243	0xb5992585	-1.1410308e-06
244	0x36c9e303	6.0166944e-06
245	0xb7221ff3	-9.663391e-06
246	0xb60043b6	-1.91129e-06
247	0xb5e7201f	-1.722019e-06
248	0xb6a53b68	-4.924299e-06
249	0x3715ee51	8.936579e-06
250	0xb7a210ae	-1.9319672e-05
251	0x37467f1d	1.18313155e-05
252	0xb766d66d	-1.3758993e-05
253	0xb7a4d73e	-1.9650553e-05
254	0xb7975f07	-1.8044853e-05
255	0xb636826b	-2.7196027e-06

exp_avg_sq f4 [32, 32]
0	0x3217f8e7	8.845951e-09
1	0x30809733	9.356199e-10
2	0x2e712273	5.4827653e-11
3	0x303c5477	6.8514033e-10
4	0x3106b5b0	1.9602844e-09
5	0x3140d6b2	2.8061717e-09
6	0x3045749d	7.18339e-10
7	0x324230f7	1.13034195e-08
8	0x2e462265	4.5050536e-11
9	0x30227cb0	5.911245e-10
10	0x30e7e560	1.6872654e-09
11	0x30d4c8a4	1.5482056e-09
12	0x305d164f	8.0431034e-10
13	0x31229e57	2.3664108e-09
14	0x32a3ff24	1.9091722e-08
15	0x3197d831	4.4192565e-09
16	0x3096787e	1.0948182e-09
17	0x31609d9f	3.2685887e-09
18	0x306f0a04	8.6961927e-10
19	0x2e4fec85	4.7276422e-11
20	0x31d3295b	6.14561e-09
21	0x313ca33d	2.745039e-09
22	0x30190c42	5.5678495e-10
23	0x2f9cd4a0	2.8527314e-10
24	0x31c4d2c1	5.7283107e-09
25	0x30e34068	1.6534729e-09
26	0x326b990b	1.3713598e-08
27	0x2d0aedb1	7.89717e-12
28	0x308d1247	1.0264295e-09
29	0x3193ffb7	4.3073345e-09
30	0x32472a9f	1.1593015e-08
31	0x3254b87a	1.2381969e-08
32	0x323ab75f	1.0868319e-08
33	0x31bd6140	5.51168e-09
34	0x32058653	7.772161e-09
35	0x329b1e0d	1.805804e-08
36	0x3377b1c9	5.7670864e-08
37	0x3247284b	1.1592486e-08
38	0x315a5d99	3.177638e-09
39	0x32562dbc	1.2466838e-08
40	0x2f10ead2	1.3180149e-10
41	0x312aaf91	2.4838054e-09
42	0x32c6d61b	2.3147598e-08
43	0x3297070a	1.7581915e-08
44	0x3127b295	2.440321e-09
45	0x32bcb3b9	2.1967809e-08
46	0x321e05f9	9.1981684e-09
47	0x314e1cb6	2.9993266e-09
48	0x331d1711	3.657539e-08
49	0x3237b959	1.0694145e-08
50	0x32468f35	1.1557678e-08
51	0x31fdc628	7.385797e-09
52	0x318cf708	4.1026205e-09
53	0x31336601	2.610591e-09
54	0x32a06875	1.8673953e-08
55	0x31d73715	6.2635857e-09
56	0x329d9321	1.8344112e-08
57	0x32cd88c9	2.3927344e-08
58	0x3192c45c	4.2714827e-09
59	0x31e293ec	6.5942825e-09
60	0x32ad1886	2.0151003e-08
61	0x32821af0	1.5146242e-08
62	0x32b3f5dd	2.0950148e-08
63	0x33315278	4.128603e-08
64	0x2ea3f429	7.4557534e-11
65	0x2d96a0c1	1.7124415e-11
66	0x2f6630df	2.093574e-10
67	0x2f52afc3	1.9161832e-10
68	0x3107abb0	1.9742679e-09
69	0x305aa193	7.953755e-10
70	0x301536db	5.428384e-10
71	0x30708a60	8.7508134e-10
72	0x302218df	5.89706e-10
73	0x2e595add	4.942079e-11
74	0x2fe73a24	4.2059967e-10
75	0x30c3c0b5	1.4242888e-09
76	0x2f7f8af8	2.3241487e-10
77	0x313054b1	2.5659512e-09
78	0x2e8f9908	6.530071e-11
79	0x30ffae1a	1.8603175e-09
80	0x3115c6f1	2.1795439e-09
81	0x31500162	3.026877e-09
82	0x30ddcfee	1.6138963e-09
83	0x2ee23fce	1.0288624e-10
84	0x30a2c016	1.1841645e-09
85	0x30daae94	1.5911206e-09
86	0x31ef6f29	6.968453e-09
87	0x2e6be35e	5.3634756e-11
88	0x30545718	7.724892e-10
89	0x31cbd31b	5.9320775e-09
90	0x31821e23	3.786924e-09
91	0x308fb28e	1.0455368e-09
92	0x304b4b11	7.3957646e-10
93	0x3093c8e9	1.075276e-09
94	0x307a3a70	9.1032515e-10
95	0x30753c3a	8.921607e-10
96	0x32212294	9.379296e-09
97	0x312b5440	2.4931666e-09
98	0x313d4dcf	2.7547349e-09
99	0x322ad847	9.944478e-09
100	0x32eacf6b	2.7335508e-08
101	0x320388e9	7.656333e-09
102	0x30c211b4	1.4120389e-09
103	0x32378cd8	1.0684026e-08
104	0x2e32a674	4.0620354e-11
105	0x308ce525	1.0251467e-09
106	0x32472bd1	1.1593287e-08
107	0x31fd396e	7.369798e-09
108	0x30894ed4	9.990466e-10
109	0x321bed9c	9.076214e-09
110	0x324b0979	1.1818309e-08
111	0x317694b1	3.5882233e-09
112	0x32a67f33	1.9382787e-08
113	0x32029b44	7.602299e-09
114	0x30ec2250	1.7181012e-09
115	0x3075ddf0	8.9445873e-10
116	0x319f591b	4.637639e-09
117	0x312cfd20	2.517318e-09
118	0x31942ac6	4.3122297e-09
119	0x30e2ed9f	1.65112e-09
120	0x327f6246	1.4865298e-08
121	0x31ff385c	7.427884e-09
122	0x32009017	7.483343e-09
123	0x31559df1	3.1085359e-09
124	0x321e1d58	9.203482e-09
125	0x31966d94	4.378032e-09
126	0x3297cbbd	1.7671363e-08
127	0x32bda046	2.207538e-08
128	0x328db6d4	1.6497701e-08
129	0x316bfd0d	3.4340844e-09
130	0x31cf53de	6.0340275e-09
131	0x325400ee	1.23402355e-08
132	0x335ffb74	5.214993e-08
133	0x32276671	9.743972e-09
134	0x31484672	2.9143874e-09
135	0x3273aef2	1.418424e-08
136	0x2f60d0e5	2.0446896e-10
137	0x30e4a349	1.6635592e-09
138	0x329aa321	1.8002142e-08
139	0x3296624f	1.7507004e-08
140	0x30d923f0	1.5799042e-09
141	0x32a58827	1.9270443e-08
142	0x324af2fe	1.18131975e-08
143	0x318616bb	3.9024974e-09
144	0x33024b3e	3.0336416e-08
145	0x325384ae	1.2311984e-08
146	0x321074be	8.408447e-09
147	0x31a68939	4.8468363e-09
148	0x31b46eb1	5.2512736e-09
149	0x317eda67	3.7086012e-09
150	0x3296a46f	1.7537074e-08
151	0x318e8419	4.1477617e-09
152	0x32984e98	1.773087e-08
153	0x32e9331c	2.7148012e-08
154	0x31ed1ba5	6.9007506e-09
155	0x31cbc9f1	5.9310357e-09
156	0x329ace0e	1.8021662e-08
157	0x3248e646	1.169389e-08
158	0x32bf19a5	2.2246988e-08
159	0x335d4dda	5.1526378e-08
160	0x3198e393	4.4496544e-09
161	0x30ce8232	1.5025476e-09
162	0x315464e7	3.0907417e-09
163	0x32005f90	7.472309e-09
164	0x321048e5	8.3984775e-09
165	0x3198b368	4.4441784e-09
166	0x3090a58c	1.052443e-09
167	0x321a4785	8.980241e-09
168	0x2e4f65ed	4.715688e-11
169	0x308200fe	9.459027e-10
170	0x31314d45	2.5800813e-09
171	0x31108a4a	2.1033366e-09
172	0x3095aae6	1.0889749e-09
173	0x30ae3842	1.2676156e-09
174	0x320b0a6f	8.093237e-09
175	0x3116753b	2.189451e-09
176	0x3210dd16	8.432172e-09
177	0x308b59ac	1.0139067e-09
178	0x2fbdbb56	3.451201e-10
179	0x30e4ac16	1.6638093e-09
180	0x3193a4ea	4.2970116e-09
181	0x3003646c	4.780023e-10
182	0x3138127e	2.6786036e-09
183	0x309b6138	1.1305366e-09
184	0x3209eece	8.0287474e-09
185	0x30e10c2e	1.6374366e-09
186	0x31bc0ee0	5.473211e-09
187	0x3058da8b	7.889091e-10
188	0x31e54d73	6.673582e-09
189	0x2fe12831	4.095582e-10
190	0x32281790	9.7842445e-09
191	0x322bf299	1.000867e-08
192	0x30fc4a81	1.8356588e-09
193	0x30b9defe	1.35239e-09
194	0x3069055b	8.4772517e-10
195	0x3061ba86	8.211959e-10
196	0x32bf08c7	2.2239318e-08
197	0x30b50dc7	1.3173399e-09
198	0x30b0daae	1.2867838e-09
199	0x2ff1e03d	4.3996976e-10
200	0x2c317f49	2.522387e-12
201	0x305deff6	8.0740337e-10
202	0x3206a995	7.838385e-09
203	0x31d686fe	6.2435666e-09
204	0x30a159db	1.173983e-09
205	0x329e3526	1.841779e-08
206	0x2ed7d334	9.814585e-11
207	0x2f43483d	1.7760811e-10
208	0x3175b6e1	3.5756147e-09
209	0x31837e36	3.8269503e-09
210	0x328f144f	1.6656626e-08
211	0x31becbd1	5.552899e-09
212	0x30220d28	5.8953953e-10
213	0x305ac004	7.958081e-10
214	0x32481c49	1.16479635e-08
215	0x31618afc	3.2820813e-09
216	0x2f354717	1.648711e-10
217	0x324b3f88	1.18306005e-08
218	0x2fd40465	3.8565698e-10
219	0x310917a6	1.9949566e-09
220	0x30e97a89	1.6987808e-09
221	0x32fb444a	2.92513e-08
222	0x31385a10	2.6826719e-09
223	0x322a6955	9.919252e-09
224	0x3113ea66	2.1524555e-09
225	0x30b9912e	1.3501784e-09
226	0x31870768	3.929859e-09
227	0x31ef3e0b	6.962869e-09
228	0x3289dff8	1.6050748e-08
229	0x31e5c43c	6.6870864e-09
230	0x30c105b7	1.4044222e-09
231	0x31ad074b	5.035792e-09
232	0x2f720759	2.2012382e-10
233	0x30c3539f	1.4211884e-09
234	0x322f1837	1.01918465e-08
235	0x3212764e	8.525218e-09
236	0x30a3c460	1.1915624e-09
237	0x3223120a	9.49195e-09
238	0x316cf95b	3.4484262e-09
239	0x30db0254	1.5935009e-09
240	0x329e46b1	1.8425768e-08
241	0x31cb0ab0	5.9092926e-09
242	0x320962ee	7.9969436e-09
243	0x315b0659	3.1872303e-09
244	0x311720a3	2.1991944e-09
245	0x30973479	1.100161e-09
246	0x32343da0	1.0491391e-08
247	0x316affb1	3.4196825e-09
248	0x31bb123c	5.4444893e-09
249	0x324fdccc	1.2099189e-08
250	0x317e2491	3.698265e-09
251	0x3152be52	3.0667207e-09
252	0x32206e4a	9.338303e-09
253	0x31fc7de1	7.348476e-09
254	0x31cb38ae	5.9145213e-09
255	0x326b7f4b	1.3707743e-08

exp_avg f4 [32]
0	0xb6205e4a	-2.3896741e-06
1	0x36c1b7a7	5.773228e-06
2	0xb7cd09d5	-2.4442483e-05
3	0x3694962c	4.428226e-06
4	0xb7342697	-1.0737821e-05
5	0xb7619879	-1.3446545e-05
6	0xb783f0e9	-1.57286e-05
7	0xb7a16e64	-1.92441e-05
8	0x3661345e	3.3558094e-06
9	0x371664c4	8.964158e-06
10	0x36038128	1.95957e-06
11	0x36eae61b	7.0005312e-06
12	0xb73f9934	-1.14201575e-05
13	0xb6e9c4f4	-6.9668695e-06
14	0xb6927e27	-4.365825e-06
15	0x37127778	8.730094e-06
16	0x374fffda	1.2397732e-05
17	0x36b1b6f9	5.296312e-06
18	0x3767687d	1.3793001e-05
19	0x3740d707	1.1494157e-05
20	0x3361fa02	5.2614276e-08
21	0x374518d3	1.1747895e-05
22	0xb50d820c	-5.2715836e-07
23	0x3616f7e2	2.2496029e-06
24	0xb4839a0b	-2.4512732e-07
25	0x378afa64	1.656748e-05
26	0xb6d5ae64	-6.3681964e-06
27	0x37622666	1.347959e-05
28	0x37923b11	1.7432061e-05
29	0x377f6053	1.5221612e-05
30	0xb69d3c8c	-4.686013e-06
31	0x373451c9	1.0747878e-05

exp_avg_sq f4 [32]
0	0x32270d37	9.723684e-09
1	0x3331ebb6	4.14254e-08
2	0x3103eb8e	1.9196906e-09
3	0x32ccc984	2.3840364e-08
4	0x3335545f	4.221908e-08
5	0x323127b0	1.031178e-08
6	0x32277241	9.746658e-09
7	0x3289ffa6	1.6065155e-08
8	0x31888116	3.9727963e-09
9	0x31fd27f5	7.3678117e-09
10	0x311d3513	2.2876676e-09
11	0x330de44d	3.303676e-08
12	0x325ed97a	1.2971549e-08
13	0x31ac725d	5.0188604e-09
14	0x32926fbf	1.7047453e-08
15	0x32b235f9	2.0746471e-08
16	0x31218bf8	2.3508147e-09
17	0x3267b301	1.34866704e-08
18	0x325ee403	1.2973945e-08
19	0x32a11401	1.8751964e-08
20	0x31da5eb9	6.3554038e-09
21	0x319f5da8	4.6381565e-09
22	0x311b34e5	2.2585536e-09
23	0x3229c11f	9.881005e-09
24	0x3268b784	1.3545904e-08
25	0x3162b5ed	3.2990741e-09
26	0x320e1b1d	8.271653e-09
27	0x31276ded	2.4364184e-09
28	0x3339cec2	4.3261714e-08
29	0x3245a2e6	1.1503948e-08
30	0x31394b20	2.6963747e-09
31	0x311d64f0	2.2903883e-09
