flygym_gymnasium/data/trained_models/head_stabilization/all_dofs_model.ckpt (torch, 41867 bytes, 18 tensors)

layer1.weight f4 [32, 48]
00000000: 93a4 a6be 6a49 14be 43f1 7dbd 739e a5be
00000010: de09 703e 3649 a53d 3ef7 1cbe f4ca c5be
00000020: 4d42 423e f668 b73d 9028 023e bb26 10bd
00000030: f062 ed3d cb72 6b3e 4f70 8a3e a876 f2bd
00000040: 6c5e 4e3d 6c41 bbbe ff3c 7a3e 7685 02bf
00000050: d32e e63c c332 fc3d a0c7 c73e 0e08 993e
00000060: 0176 693f 28f8 48be 5b7b c83e afe5 ce3e
00000070: 683b a2ba ad4e 753d dc82 713d 0e84 233e
00000080: b75b e63d 66e0 e13d c690 d2bc f827 56bc
00000090: 47e9 d83e 6eda a83d a244 0a3f a186 633d
000000a0: 5f79 a1bd 9906 703e 6efa cabd 6a26 25be
000000b0: 6461 9dbc 4b74 133d a5dc 39bd 8595 58bd
000000c0: ee4d 383d 6f17 133e a660 c7bc 5dab b33d
000000d0: 48a8 03be c765 2a3e e8a4 00bc 5c63 c03e
000000e0: bd17 5abe bb67 3c3d fbca f7bd e20b acbe
000000f0: f646 4abe 9a6a 883c 1419 a4be d4a6 a23d
00000100: 7e13 43be 46c8 5f3f b967 4ebe dca2 e93e
00000110: 64db d43c 789d 09bd f819 64bd 3931 f2bd
00000120: 2cad aebd f838 213e f352 d5bd ffae c13c
00000130: 9452 8dbe f9a7 6dbe 75cf 423e 178d 543e
00000140: 27e5 fcbd 6807 883e 5791 6f3e d2a4 04be
00000150: e0f9 f9bd 47b8 883d 1dd4 0f3e 54ab f3bd
00000160: 7bfb e63d 2325 80bd 50ab 7dbd b5d3 9a3c
00000170: e6fc a83c 8bff e2bd daad 4fbd 7826 93bd
00000180: dbc5 0d3f 7137 c0be 1a82 49bc 6d23 c83e
00000190: 5407 a0be f0a8 d33e c889 963e 8e83 9abe
000001a0: afac 363e 583b 6a3c 6d89 4fbd 1d2a 82bd
000001b0: 5496 3b3c f5e9 9bbc 7810 fc3d 60e6 30be
000001c0: 0521 0f3e 69ce cbbe e8d7 743d 38fe 1dbf
000001d0: a041 ddba a044 3cbe b813 b3bd 7a9d cd3d
000001e0: 4270 043e 2938 83be 50b7 723d 05e4 a8bd
000001f0: 10be 1abe 686e 9b3d 3a6b 2bbe 106f 41be
00000200: e8b5 bf3c 037e 57bd ca9f 243b 4cea d43d
00000210: e8fa 59be 1132 b43d ca67 2b3e 77ff ef3d
00000220: 1602 c73d ae8c b5bd d65b 10bd a76a 543d
00000230: 98da 85bc de85 38bd 2560 5dbc 2981 5a3d
00000240: eac7 03be 435c b03d 295a 24be bd2c 2d3e
00000250: 9e7f 303d 23d4 e6bd 0d94 c63d 120a 09be
00000260: 4b41 00be fd0c a0bc e7fe 91bb 8254 fcbc
00000270: 5cac 9f3c 2fd6 7e3e ea08 d5bd 5903 dbbc
00000280: e65c a03d 7173 703c 2eda 403d af1d b3bd
00000290: b0b9 38bd 1e84 57bd a042 d03e 454c b3bd
000002a0: ae65 3fbf 1b60 e1bd 9353 1bbf 406c 1bbd
000002b0: 96b5 c63d 1a51 883c 5eab b33e 1b1c d23e
000002c0: 57dd 95be 4501 c83e dac7 2d3e 1617 11be
000002d0: 4252 523e e8ec b5bd a535 f73e ca10 3dbe
000002e0: 4b9e 21bd ffb5 8c3e 343d 823d d820 173c
000002f0: 0d7b 2bbd 9a02 c1bd 3af5 b7bd a4a5 a3bc
00000300: 5acb 413e 5fba 27be 8d1f 843d a691 8a38
00000310: 78a4 0dbc 0318 30be 6bf0 ac3c 5c1d d0bc
00000320: df0e 563e 3ece 173c 78c6 10bd 4c63 d93d
00000330: 0172 883d 4dbb 5c3c 1f83 a43e d357 bebd
00000340: 760a 213e fe9a 0cbf 886e 113c e614 bfbe
00000350: 9a4d 64bd 46ba 50be 3070 40be 4982 5ebe
00000360: f7cd 153d fcb9 ac3d 787a 9d3e 6e02 253e
00000370: c110 4fbe 75e1 8d3d 4104 d239 7e9f e63e
00000380: e075 d33d 8fa6 bcbc 6234 053f 6192 06bd
00000390: 0e5c 73bd a210 e03b 0ba5 2ebe 5e37 a9bd
000003a0: 68c0 60be 1b4f ca3c f8d2 52bd 31ea 393d
000003b0: 7ea7 6e3b b1fd 33bd 49d3 9c3d dcb9 853d
000003c0: f880 a3be da4d f4bc c299 433e 2728 ecbc
000003d0: 4fdc 89be b2cf da3e dcb8 00bc 3c69 f2bc
000003e0: 6b64 813e 1312 cfbd 61ec 113e 52e2 a0bd
000003f0: 7578 283d d3aa 7e3e 49ce 83be 500b f3bc
-0.32547435 -0.1448113 -0.061997663 -0.3234745 0.23441264 0.080706045 -0.1532869 -0.38631403
0.18970604 0.089555666 0.12710786 -0.035193186 0.115911365 0.22993009 0.2703881 -0.11839038
0.050383016 -0.3657335 0.2443733 -0.50984895 0.0280985 0.123143695 0.3901949 0.29888958
0.91195685 -0.19625914 0.39156613 0.4040961 -0.0012377324 0.059889484 0.058962688 0.15968344
0.11247962 0.11029129 -0.025703799 -0.013071053 0.42365476 0.08244787 0.54010975 0.055548314
-0.07884478 0.23440017 -0.09911047 -0.16127935 -0.019211479 0.035999577 -0.04537644 -0.052876968
0.044996195 0.14364408 -0.024338078 0.08772919 -0.12857163 0.16640387 -0.007851817 0.37575805
-0.21298118 0.045997363 -0.12099262 -0.33602816 -0.19753632 0.016652394 -0.32050383 0.07941976
-0.19050404 0.8741497 -0.20156755 0.45632064 0.02598352 -0.03359744 -0.05568883 -0.11825795
-0.08529124 0.15744388 -0.10416212 0.023643015 -0.27602065 -0.23208608 0.19024451 0.20756947
-0.12348395 0.2656815 0.23395287 -0.12953499 -0.12205863 0.06675773 0.14045759 -0.118979126
0.11278435 -0.06257083 -0.061930954 0.018899778 0.020628404 -0.11083897 -0.050702907 -0.07185072
0.5538003 -0.37542298 -0.012299085 0.39089528 -0.3125559 0.41339827 0.29401994 -0.30178493
0.17839311 0.014296375 -0.05066817 -0.06355689 0.011449415 -0.019032458 0.12307829 -0.17275381
0.1397744 -0.39805916 0.059776217 -0.6171603 -0.001688052 -0.18385553 -0.087439954 0.10039802
0.12933448 -0.25628784 0.05925685 -0.08246616 -0.15111566 0.07589418 -0.16740122 -0.18890023
0.02340217 -0.05261041 0.0025119656 0.10396251 -0.2128712 0.08798612 0.16738811 0.11718648
0.09717195 -0.08864723 -0.03524383 0.051859524 -0.016339585 -0.04504954 -0.013511692 0.053345833
-0.1286923 0.086113475 -0.16050018 0.16911598 0.043090455 -0.112709306 0.09696207 -0.13382748
-0.12524907 -0.019537443 -0.0044554356 -0.030802015 0.019491367 0.24886392 -0.10402091 -0.026734995
0.07830219 0.014675961 0.047083072 -0.08745896 -0.04509896 -0.05261623 0.4067583 -0.08754782
-0.74764526 -0.11004659 -0.606744 -0.037945032 0.097026035 0.016640235 0.3509168 0.41037068
-0.2927043 0.3906347 0.16970769 -0.14168963 0.20539191 -0.08883077 0.48283115 -0.18463436
-0.0394576 0.27482602 0.0635933 0.009224139 -0.041865397 -0.09424324 -0.0898232 -0.019976445
0.18925229 -0.16379689 0.0645133 6.607482e-05 -0.008645169 -0.1719666 0.021110734 -0.025404625
0.2090411 0.009265481 -0.035345525 0.106146425 0.066623695 0.01347239 0.32131287 -0.09294095
0.15726647 -0.54924 0.00887645 -0.37320632 -0.05573807 -0.20383558 -0.18792796 -0.21729387
0.036573377 0.08433911 0.307575 0.16114208 -0.20221235 0.06927768 0.0004005749 0.45043558
0.10325217 -0.02302864 0.52033055 -0.03285444 -0.059413962 0.0068379203 -0.17055146 -0.082625136
-0.21948397 0.024695924 -0.051470727 0.045389358 0.003641575 -0.04394311 0.07657487 0.065295905
-0.31934333 -0.029822279 0.19101623 -0.02882774 -0.26925895 0.42736584 -0.007856574 -0.029591195
0.25271925 -0.10110869 0.14250328 -0.07855667 0.0411305 0.24869852 -0.2574332 -0.02966848

layer1.bias f4 [32]
00000000: 90b7 a6bd ba7c 3dbe c012 5d3e 6b0e 50be
00000010: d040 413e 4935 eb3d e9af 86be ad31 313e
00000020: b040 9abe b427 843d 17ab e43e 39ba bb3e
00000030: 80f6 38be eca9 2c3e de71 063e 9ca5 9f3c
00000040: ce65 983e fda2 023e cf25 8b3d ebf2 dcbd
00000050: 6a33 a73d f27a bbbd 9f40 813d 087e 68be
00000060: 993e b5be 5581 853e 8a56 13be 6ec7 683e
00000070: cbb5 823e 6545 97be d568 01be 69b8 103f
-0.081404805 -0.1850461 0.21589184 -0.20318 0.1887238 0.11484773 -0.26306084 0.17304106
-0.30127478 0.06452885 0.4466178 0.36665514 -0.18062782 0.16861695 0.13129374 0.019488148
0.2976517 0.12757488 0.06794321 -0.107885204 0.08164103 -0.09154309 0.063111536 -0.22704327
-0.3539932 0.26075235 -0.14388481 0.22732326 0.25529322 -0.2954513 -0.12637646 0.5653139

layer2.weight f4 [32, 32]
00000000: f86d d5bc 3feb 90be 0a9d fc3d d9b2 9bbe
00000010: b866 003d 0dbe b83d fdae 62bd c6fd f93c
00000020: dc3d 273e 0a67 3dbe 2268 553e 1cc0 10be
00000030: 9aff f1bc 2b0d bd3d 205e 533e d543 593b
00000040: 3bd7 98bc ca4d e1bd cb3b 903d 566e acbe
00000050: 96cf 95bd 8870 6b3e e39f 8d3e bcbb c9bc
00000060: aaee 68be 3ac1 fabd 99c8 c83e ad1a 09bf
00000070: 33c4 6cbd e634 e83c 556e da3d bfc8 3d3d
00000080: 4a07 90bc 1c22 943e ec02 b23c 4df4 2fbd
00000090: ff4d 093e 4ce9 a6bd a573 c8bb 7032 d2bd
000000a0: 97f0 2abd ada2 9f3d 04c0 083e cce1 303e
000000b0: b35c f43c 8e73 8bbd 0ed1 283d 406f 1fbd
000000c0: 771a 7e3e f9ba 86bd ae98 213e d3c6 923e
000000d0: bfd6 34bc de41 113d 5e98 963d 8691 36bd
000000e0: f4d1 bdbd b6e5 0abe c0e9 3dbe 174a c9bc
000000f0: 211e 99ba 268b abbd d871 b23e 4dcd 7fbe
00000100: 30bb cf3b f481 69bd 0dc6 bdbe cfa6 af3e
00000110: dcfc 66bd 7625 043c c655 273e 18cf ddbd
00000120: 9093 173f bbc7 8dbe 7768 a23d e8d6 59bd
00000130: 759f d83c a67a 833c e3b1 27be b291 54bd
00000140: e899 bd3c 03c1 ba3e 45f4 6cbe da6c 31bd
00000150: 9d2c 183e fbe3 1b3e 23d1 c33e 3652 d4bd
00000160: 68ba 30be 5175 34be 1d16 843d b715 61bd
00000170: 72c9 34be 5ee5 b5bd 5a8a 103e 10b5 5bbe
00000180: feab 7abe 469e 963e 7553 353e 34ef 463e
00000190: 05d0 503e a5f2 0e3d 05bd 47bd 40cf 99bd
000001a0: 5bbb 72be b0da adbe 58b4 db3d 3d51 5fbe
000001b0: 5ae8 8ebd fbbc 613e cdd4 4e3e c044 c2bd
000001c0: 5293 0d3e 74b8 aebc 05d5 e7bd 11e9 93be
000001d0: 9809 c03c e296 b13c 802f 3ebe ab80 113e
000001e0: 1e6b 563e 472d eabd 2341 5c3d 13d6 0c3c
000001f0: bb62 c3bc d72f 203e 8f84 7a3e 7d78 23be
00000200: 148e 71be 316b 1a3e 83ac 1a3d 2d7b 1b3e
00000210: c748 063e c9d8 ba3d d214 a13e 486f aebc
00000220: 8ad1 4b3d 3d80 e4bd 0822 703d fbd5 1e3e
00000230: 263c 66bc 7823 ff3d 7937 a23d c356 2ebe
00000240: aba8 c0bd be5e a0be 8150 c0bd a7a9 dbbd
00000250: 1ca7 c33d 6a4b 66be efa3 b2bd d55b 033e
00000260: 9aca 8a3e 4473 d43d 43a4 5e3e d045 5c3e
00000270: 3a8c d4bd 92f5 753c d4a4 ca3d d2ce 393e
00000280: 2688 20be 5fb4 353d 0f6c 9a3d d433 4e3e
00000290: a344 01be 88aa 1ebe 26e5 323d 0be2 643e
000002a0: 1dfe 4b3e ecc3 f5bd d924 103e 2f73 f8bc
000002b0: 4fa1 903e 4d93 ed3c e0d5 113e 8ca4 8f3d
000002c0: e1a0 85be be9a 123e 1c0c 24bf 7018 803e
000002d0: 7136 863d c32e 1abe a829 a43d 87eb 12bf
000002e0: 8549 b43d 390d 9b3e 40ba 373e aedb dd3c
000002f0: e29a 53bd 0c53 93bd 8b93 163e e70f 82be
00000300: 9954 ee3d 6d01 aabe a5bd c43d 810f 07bf
00000310: a631 07bd 247e 99be 48c6 3a3e f614 50be
00000320: af27 16be f09d debc f29a 97be 8448 82bb
00000330: 519a 683c 9ad5 aabc 1cce 29be b1f1 92be
00000340: ab49 23be 24c2 3abd c23a 743e 8f00 a8bd
00000350: 689c 903e e35a af3d 26ea 0e3e 1043 8ebd
00000360: a3f3 2ebe 8ca8 0cbe d169 0cbe fc43 3ebe
00000370: 1923 b3be 1045 1dbe 576b af3c bc8d 1e3b
00000380: 46a8 0abf 243b 7c3e f268 95bd 0690 423e
00000390: fb2b bbbd 6d7d 853d 212d 2fbe 8f11 6b3e
000003a0: ff44 f23e c005 1bbe b71d bf3d cab9 1fbe
000003b0: 25c7 5b3e 87e1 d2bd 9d10 5fbe c1b6 643d
000003c0: 6b18 f63d 1c0a e63d fe59 673e 4ed6 463e
000003d0: 2dd7 47bd 077d 10be 9389 e13e 344f 6e3c
000003e0: 6805 113d 8402 04be 9826 133e e503 c0bd
000003f0: 1351 933d 909b 4dbe ccf6 cebd 47f3 dfbb
-0.026053414 -0.2830448 0.1233464 -0.30409887 0.03134796 0.09020624 -0.055342663 0.030516516
0.16332191 -0.18496338 0.20840505 -0.14135784 -0.029540826 0.09231027 0.20641375 0.0033152003
-0.018657317 -0.11001165 0.070426546 -0.3367793 -0.073149845 0.22992146 0.27661046 -0.024625652
-0.22747293 -0.12243886 0.39215544 -0.5355633 -0.057804298 0.028345536 0.106655754 0.046334025
-0.0175816 0.28932273 0.021729909 -0.042957593 0.1340866 -0.081499666 -0.0061173015 -0.102635264
-0.04173335 0.077947 0.13354498 0.17273635 0.029829359 -0.0680915 0.041214995 -0.038924456
0.24814783 -0.06578631 0.15780899 0.28667316 -0.011037528 0.035463206 0.073532805 -0.044572376
-0.09268561 -0.1356419 -0.185462 -0.024571462 -0.0011681953 -0.0837615 0.3485248 -0.2498066
0.006339453 -0.0570087 -0.37065163 0.34306952 -0.05639349 0.008065572 0.16341314 -0.108305156
0.5920954 -0.27691445 0.07930081 -0.053183466 0.026443223 0.016049694 -0.16376452 -0.05189676
0.023144677 0.3647538 -0.23140056 -0.0433167 0.14860769 0.15223686 0.38245496 -0.10367243
-0.17258608 -0.17622878 0.0644953 -0.05495235 -0.1765497 -0.08881639 0.14115277 -0.21455789
-0.24479672 0.29417628 0.17707618 0.19427186 0.20391853 0.034899373 -0.048764247 -0.07510233
-0.23704283 -0.33955908 0.10727757 -0.21808334 -0.06977911 0.22044747 0.20198365 -0.09485769
0.1382573 -0.021328188 -0.11319927 -0.28888753 0.023442075 0.021678392 -0.18572807 0.14209239
0.209393 -0.11434417 0.053773057 0.008595961 -0.02385079 0.1564325 0.2446463 -0.15963931
-0.23589355 0.15079953 0.037762176 0.15183707 0.131137 0.0912338 0.31461197 -0.021293297
0.04976038 -0.11157272 0.058626205 0.15511315 -0.014052426 0.12457937 0.07920737 -0.17025284
-0.09407171 -0.31322283 -0.09390355 -0.10725718 0.09553358 -0.22489706 -0.08722674 0.12828
0.27107698 0.10373548 0.21742348 0.21511006 -0.103783086 0.015012162 0.0989472 0.18145302
-0.15676937 0.04436147 0.07540142 0.20136958 -0.12623839 -0.1549474 0.043675564 0.22351854
0.19921155 -0.1200026 0.14076556 -0.030328361 0.2824807 0.029000903 0.14241743 0.07013807
-0.26099303 0.14316842 -0.6408098 0.25018644 0.065533526 -0.150569 0.08015758 -0.57390636
0.08803085 0.30283526 0.17942142 0.02708229 -0.05166138 -0.07193574 0.1470472 -0.25402758
0.116372295 -0.33204213 0.09606484 -0.5275803 -0.033006333 -0.2997905 0.18239701 -0.20320496
-0.14663576 -0.02717492 -0.296104 -0.0039759297 0.014196948 -0.020853806 -0.1658253 -0.2870002
-0.15946071 -0.045595303 0.2385054 -0.082032315 0.28244328 0.08562257 0.13956508 -0.06946385
-0.17085128 -0.1373617 -0.13712241 -0.18580621 -0.34987715 -0.15358377 0.021413488 0.0024193367
-0.54163015 0.24631935 -0.07295407 0.19000253 -0.09139248 0.06518064 -0.17107059 0.22955917
0.47318265 -0.15138912 0.093318395 -0.15598217 0.21462686 -0.10296922 -0.21783681 0.05583835
0.12016376 0.11232397 0.22592923 0.19417688 -0.048789192 -0.14110194 0.44050273 0.014545251
0.035405546 -0.12891585 0.14370191 -0.09375743 0.07193198 -0.20078874 -0.101056665 -0.006834421

layer2.bias f4 [32]
00000000: 55f9 27bd 8f2a 253e e4e0 79be 8c99 8dbd
00000010: a078 dfbc d886 cfbe 238a a43e e1ee 23be
00000020: a3b1 093e 8f48 a93b e675 80be a3fd 3a3d
00000030: da28 e8bd 64e0 73be b0a6 623e 94ed 6e3c
00000040: 150b 0d3d 7f1f 2b3d 66cc 533c 8495 4bbe
00000050: 106a 813d 48cc 43bd eed3 b6be 2292 80bd
00000060: cc03 61be 411a 28be 3918 163e 06ff 8ebd
00000070: 96b8 2a3d e564 6a3e 6361 c9bd ca1d 56be
-0.041009266 0.16129516 -0.24402195 -0.06914052 -0.027279198 -0.40532565 0.3213664 -0.16009094
0.1344667 0.0051661204 -0.2508995 0.045652043 -0.11335917 -0.23816067 0.22133899 0.01458301
0.034434397 0.041778084 0.01292715 -0.19881254 0.06319058 -0.04780224 -0.35708565 -0.062778726
-0.21974105 -0.16416265 0.14657678 -0.069822356 0.04167994 0.2289005 -0.09833028 -0.20909801

layer3.weight f4 [2, 32]
00000000: e4bb 613d 6c8c b53d fe45 eabd 8551 ffbc
00000010: 70e1 933d f6ef a43d d335 13be 504e b3bd
00000020: a608 81bd 4971 aebd 4810 24be 074e 01bd
00000030: 7b7d 203e 263a 0ebd 3988 973d 9e2e 523d
00000040: 093f e93b 0be1 67bd f471 48bc d49d 60bd
00000050: 1673 9dbc 9495 bb3d f31a f33d 8db2 59bd
00000060: e45f b7bd a1b5 cf3d 88d1 e0bc f86b 593e
00000070: 56e7 7fbd 66c6 23bd 7587 e5bc a314 ba3c
00000080: 2578 223d 350d 893c f12b 903d 8e05 8c3d
00000090: 2410 68bd 8ea4 f43c c8e5 ea3a 79c6 bd3c
000000a0: c524 78bc 0d9c 80bc b3e0 54be 382b a43d
000000b0: 90ed 983d 767c 8b3d 0021 d4bc 188c edbc
000000c0: 1d24 75bd 7339 9bbc 8167 83bd aae0 3cbd
000000d0: 29dd 89bd c411 9dbc 11b5 d33d f1bc 863d
000000e0: ed39 74bc 80dd 1cbb e6d0 97bd 1895 903d
000000f0: 878c de3c 1a6f 8cbd 6375 933d a908 a53d
0.055110827 0.08864674 -0.11439131 -0.031166801 0.07220733 0.080535814 -0.14376001 -0.08755171
-0.06300478 -0.08517701 -0.16021836 -0.031568553 0.15672867 -0.034723423 0.07399029 0.05131399
0.00711811 -0.056611102 -0.0122342 -0.054838017 -0.019219916 0.09159389 0.118703745 -0.053148795
-0.089538366 0.10142065 -0.027443662 0.21232593 -0.06247648 -0.03998413 -0.028018693 0.022714918
0.03966536 0.01672993 0.07039631 0.06836997 -0.056656018 0.029863622 0.0017921263 0.023165928
-0.015145485 -0.01569941 -0.20788841 0.08016056 0.074671865 0.068108484 -0.025894642 -0.028997466
-0.059848893 -0.018948292 -0.06416226 -0.046112694 -0.06731636 -0.01917351 0.1033727 0.065790065
-0.014906389 -0.0023935735 -0.07412891 0.070596874 0.027166618 -0.068571284 0.07200124 0.080582924

layer3.bias f4 [2]
00000000: 18d4 41bc a03a 123d
-0.011830352 0.03570044

exp_avg f4 [32, 48]
00000000: a4a8 b237 d3bc 0a36 0792 c936 e9fb 6137
00000010: eb3b dcb5 3ea7 72b6 ed45 2fb7 40fc 8636
00000020: b091 8a36 d0c9 5f36 a350 2634 69b6 b536
00000030: e6a5 25b7 3731 67b6 0607 8bb5 d720 10b7
00000040: 3335 88b5 2017 31b7 ca3c 28b6 17d6 6737
00000050: d2d1 8bb7 d11f 7436 24f3 ecb6 6f95 93b6
00000060: 341c f4b6 2820 6ab7 afb2 7936 8a11 bc36
00000070: e391 6f36 3d5d e236 f845 48b7 8992 57b6
00000080: 22fb e7b5 b047 e736 233f fe36 c30a 84b7
00000090: 7601 0ab7 9757 f637 347a 06b7 2862 4d37
000000a0: 0e2d ca35 b9da 9637 ad01 c6b6 a244 8ab7
000000b0: e012 87b6 2ee0 44b7 66c5 52b3 3b2c c5b6
000000c0: 98b6 db35 bcec 6f37 29f3 4936 8a21 75b7
000000d0: 90f5 6d37 f622 7b37 17e5 0337 397b 9536
000000e0: 4333 9b37 58f6 7ab7 d185 ccb6 7f8a 2f37
000000f0: 22a4 ea36 aa72 53b7 b3c9 fab6 0c0c f336
00000100: 17fc 96b5 e67f a736 2e2d b636 906f 0bb7
00000110: 64de 0037 8a04 5eb7 17f3 cc35 01a9 76b5
00000120: 9623 da34 c509 3637 9332 aab6 9fb3 0e36
00000130: 5bef a936 33a3 86b7 1b23 67b7 c742 9e37
00000140: 03d4 ebb6 9492 35b7 c714 78b7 5046 8a36
00000150: f13b 8ab4 6603 bd36 1cdd 23b7 f994 feb5
00000160: eb7d 8c37 f1f6 5db7 f6a1 9437 af5c 0bb7
00000170: acf6 1bb6 34e3 f2b5 42b3 7636 a7a2 c9b6
00000180: 40f4 1937 39c4 c636 84ca b635 f713 00b5
00000190: db35 0737 8db6 bc36 2654 cfb5 d446 c737
000001a0: 621c b337 d90b 3cb7 5dda fa36 8a38 9d36
000001b0: 0a6a 24b7 2d18 45b6 4107 0136 df4b 32b6
000001c0: cde0 ab35 ef01 afb6 7f8f c137 6676 5037
000001d0: de2b 03b7 b65a 8c37 72ee bdb6 73a3 b6b3
000001e0: a48f d736 38b4 4137 1d8e 6ab5 441b c136
000001f0: ffb8 2bb6 4530 3837 133c 5235 d764 9cb7
00000200: 7863 5537 436d a137 8fbf 7537 3db0 3636
00000210: 76b2 c1b6 90b0 8736 251e 1837 28a4 0537
00000220: 4d5c dfb6 c864 5137 2b08 66b6 346d 97b6
00000230: 13f0 0537 5a2a a233 2245 6736 5295 91b6
00000240: ecc4 ea34 661b 3136 9852 04b6 f2a0 a1b6
00000250: 3ba0 3037 f0b4 b636 0098 d234 6037 45b7
00000260: d300 13b7 1b53 73b7 5dea 34b7 5a49 6536
00000270: a181 bf37 3966 3436 837e c5b6 0a8a 1437
00000280: 45a8 09b6 018c 3637 724f a4b6 d896 60b7
00000290: 8ce6 0537 29f8 43b6 816b e435 5eb5 abb6
000002a0: df0a 8fb5 20a7 4bb7 b813 0836 54eb ef35
000002b0: 3f83 b537 dea9 fbb7 0a96 c3b6 0ec0 cf37
000002c0: 2e5a b8b7 62f3 b3b7 e76a d5b7 37fe 0937
000002d0: f8b7 7337 2124 aab7 c1ae 5ab6 a8b3 c8b6
000002e0: 5080 9b37 442d c3b7 8f11 b436 0706 6bb5
000002f0: 1171 79b5 0341 9e36 73c7 0436 10bd 05b6
00000300: 92fb 82b7 5eec eab6 23d9 d637 42ae dd36
00000310: 0963 67b4 30e9 fab6 ddfa 80b6 13db 8236
00000320: cf2b 06b7 e1e3 1a38 6ab5 cdb6 4ae5 5ab7
00000330: 0eaf 9fb7 fd76 7737 57c5 68b7 873f fa36
00000340: 65c2 d0b7 1f8b e5b6 7400 e3b7 e976 86b4
00000350: 92ec 9a37 0eea 13b8 153b 8137 c916 02b8
00000360: f94f 4037 8b7c 0ab6 8fc5 4ab7 c59a 33b6
00000370: 860a d0b5 537e a8b7 32ce 3d37 fe28 8e36
00000380: df21 90b7 6768 67b7 d66b 21b7 c7bf b335
00000390: 1705 7d37 30c9 0bb8 99d8 0337 f781 e9b7
000003a0: 462f 5b37 8ad2 4bb7 f954 6237 c233 c735
000003b0: 8a33 1037 e21e 4535 f18c f336 6f56 4237
000003c0: 63e7 ab37 8c94 5f37 8b21 74b7 b453 07b6
000003d0: a990 3236 1ddc 3836 61d5 18b6 7645 b9b7
000003e0: bce7 66b6 aac6 91b7 a8cc ba36 3d5e 7237
000003f0: 736a 66b7 49c6 3bb7 bd7b 6137 10d8 14b5
2.1297783e-05 2.0673513e-06 6.0072666e-06 1.34696975e-05 -1.6408716e-06 -3.6158158e-06 -1.0447094e-05 4.022877e-06
4.1296807e-06 3.334706e-06 1.548929e-07 5.4154557e-06 -9.873393e-06 -3.445033e-06 -1.0358351e-06 -8.590715e-06
-1.0148273e-06 -1.0555406e-05 -2.5069335e-06 1.381852e-05 -1.6667796e-05 3.6377353e-06 -7.0616534e-06 -4.3983378e-06
-7.27505e-06 -1.3954974e-05 3.72079e-06 5.6048784e-06 3.5698692e-06 6.746179e-06 -1.193722e-05 -3.2122791e-06
-1.728393e-06 6.892682e-06 7.57714e-06 -1.5740638e-05 -8.225781e-06 2.9366272e-05 -8.015475e-06 1.2241806e-05
1.5063285e-06 1.7983244e-05 -5.901055e-06 -1.6482842e-05 -4.025511e-06 -1.1734706e-05 -4.9073968e-08 -5.8762066e-06
1.6369913e-06 1.4300629e-05 3.0092872e-06 -1.4610947e-05 1.4183475e-05 1.4968906e-05 7.861548e-06 4.454891e-06
1.850131e-05 -1.4958518e-05 -6.095252e-06 1.0463059e-05 6.992851e-06 -1.2603277e-05 -7.4740615e-06 7.243367e-06
-1.1249239e-06 4.991877e-06 5.4292823e-06 -8.311021e-06 7.681174e-06 -1.3233288e-05 1.5269933e-06 -9.1888074e-07
4.0631556e-07 1.085032e-05 -5.0722824e-06 2.1264202e-06 5.064457e-06 -1.605004e-05 -1.3776847e-05 1.8866163e-05
-7.028227e-06 -1.0822569e-05 -1.47867895e-05 4.120906e-06 -2.5748116e-07 5.6330346e-06 -9.767038e-06 -1.8967831e-06
1.6747936e-05 -1.3230122e-05 1.7718394e-05 -8.306625e-06 -2.3240382e-06 -1.809653e-06 3.6761198e-06 -6.009202e-06
9.1763795e-06 5.923703e-06 1.3618996e-06 -4.771277e-07 8.059166e-06 5.6240883e-06 -1.5447192e-06 2.375563e-05
2.135168e-05 -1.1208432e-05 7.4760014e-06 4.6855466e-06 -9.799851e-06 -2.936936e-06 1.922672e-06 -2.656823e-06
1.2805918e-06 -5.2156315e-06 2.3074213e-05 1.2425333e-05 -7.818422e-06 1.6731541e-05 -5.6603976e-06 -8.504767e-08
6.4242213e-06 1.1545657e-05 -8.7378595e-07 5.7550224e-06 -2.5588668e-06 1.0978493e-05 7.8318516e-07 -1.8643606e-05
1.2718949e-05 1.9243575e-05 1.4647739e-05 2.7222698e-06 -5.772624e-06 4.043868e-06 9.066925e-06 7.965638e-06
-6.656663e-06 1.2480836e-05 -3.4277425e-06 -4.5128636e-06 7.983314e-06 7.5514166e-08 3.4461923e-06 -4.33872e-06
4.3729176e-07 2.6391003e-06 -1.9717609e-06 -4.8169104e-06 1.0527724e-05 5.4450866e-06 3.9226143e-07 -1.1755008e-05
-8.762075e-06 -1.4503278e-05 -1.0783403e-05 3.4166355e-06 2.2829337e-05 2.6881592e-06 -5.8857854e-06 8.853627e-06
-2.0512537e-06 1.0880643e-05 -4.8968295e-06 -1.33865615e-05 7.981096e-06 -2.9201713e-06 1.7018612e-06 -5.117311e-06
-1.0657494e-06 -1.2138655e-05 2.0277057e-06 1.7875377e-06 2.1637998e-05 -3.0000632e-05 -5.8289197e-06 2.4765755e-05
-2.1976502e-05 -2.1451797e-05 -2.5441359e-05 8.225025e-06 1.4526762e-05 -2.0282403e-05 -3.2586252e-06 -5.981379e-06
1.853719e-05 -2.326689e-05 5.366462e-06 -8.7553093e-07 -9.292426e-07 4.7163353e-06 1.9785628e-06 -1.9928593e-06
-1.5614354e-05 -7.00126e-06 2.56119e-05 6.6065995e-06 -2.154958e-07 -7.477727e-06 -3.8439016e-06 3.8998055e-06
-7.997222e-06 3.692869e-05 -6.1305955e-06 -1.3047198e-05 -1.9035793e-05 1.4750051e-05 -1.3874224e-05 7.457976e-06
-2.4886054e-05 -6.8409277e-06 -2.706072e-05 -2.5045964e-07 1.8468392e-05 -3.526551e-05 1.540551e-05 -3.1015636e-05
1.1462712e-05 -2.0636096e-06 -1.2086136e-05 -2.6763166e-06 -1.550027e-06 -2.0085985e-05 1.1313286e-05 4.236702e-06
-1.718191e-05 -1.3792981e-05 -9.621455e-06 1.3392354e-06 1.508116e-05 -3.3327553e-05 7.858639e-06 -2.7836284e-05
1.3064424e-05 -1.2148763e-05 1.3490434e-05 1.4841719e-06 8.595069e-06 7.343316e-07 7.258372e-06 1.15834255e-05
2.0492536e-05 1.3326422e-05 -1.4551343e-05 -2.016529e-06 2.660827e-06 2.754626e-06 -2.2773968e-06 -2.2086064e-05
-3.4407558e-06 -1.7377857e-05 5.567057e-06 1.4446266e-05 -1.3733853e-05 -1.1192235e-05 1.3439855e-05 -5.544871e-07

exp_avg_sq f4 [32, 48]
00000000: e3f1 5331 7536 f930 1c10 3431 97b9 3e31
00000010: adf0 1a31 1e41 d930 8ebe 4231 aeb0 e930
00000020: b35d ed30 9e29 9331 8a1c 3f31 44a0 a530
00000030: e1cb 4e31 cf91 eb30 6b39 ff30 4687 2531
00000040: 561e 2c31 5830 1731 f34a 5731 79f4 ed30
00000050: 1f01 b231 e0a2 ec30 c204 ca30 1f2e 7430
00000060: e902 8d30 35f4 4931 eaf4 cc30 521d aa30
00000070: 44c1 2a31 e4fb 4a31 f3f5 6b31 3cf5 f930
00000080: 6a65 fa30 acb8 d930 d269 0b31 528c 1b31
00000090: bd9e 1d31 ea70 5431 9a4a 0131 8e6e 8231
000000a0: 9787 0931 3d03 5731 7ecb 0030 c571 7d30
000000b0: 83a1 a730 a6c6 a330 17ed 4b30 43c1 ac30
000000c0: 0ae6 3831 fcde f030 7b47 cc30 a5cb ec30
000000d0: b9c6 1b31 7ffa ba30 12ad e330 be60 0031
000000e0: a44d 2731 2f25 b531 8073 ed30 fef0 2231
000000f0: a5c5 4331 bdac cc30 183a 1d31 8865 5831
00000100: af6d 0c31 84bc 0731 8b79 6531 5fa2 0a31
00000110: 759e 2531 49cb 1731 cb97 e530 2a9f 2231
00000120: 735c 1031 bb9c df30 1987 bf30 efc7 1d31
00000130: cece f230 edae 4131 a2bb 3931 9269 4f31
00000140: 34de d730 90e7 d930 a8a7 1631 4d85 ae30
00000150: 9b7d eb30 f71c 4931 359d ec30 bade 8131
00000160: 7472 c230 6548 3431 24cd a630 fb49 ab30
00000170: 7ab6 a830 9b01 6530 0a55 3930 2c77 af30
00000180: 62ac d030 8179 ed30 bc6b db30 e8d7 d030
00000190: 9bcb 6631 fccc be30 0e77 f630 ee3d 0f31
000001a0: 5910 3431 d1e6 7131 727e 0e31 83d3 3931
000001b0: a3e1 1d31 b052 0631 af43 5531 3ea4 6631
000001c0: 9338 4931 3767 7731 2e0b 8c31 bbd1 2e31
000001d0: 514e 1732 9756 4131 bd4d 2731 b29a 8331
000001e0: 2a7c 7331 cd2b 6831 2284 0031 143d 3a31
000001f0: f0a5 6331 0ab3 8431 13e8 8031 8e6c 7e31
00000200: 58ad 2031 ac2d 2931 a74c 5f31 2804 5f31
00000210: d587 6e31 31f3 8e31 7ca5 5a31 7afe 8b31
00000220: b846 4d31 fd5f ac31 2842 fa30 cb33 c930
00000230: 3429 de30 2cd0 8030 1540 b530 6c9e 1631
00000240: dc1d 5e31 d1e3 0931 382f 1731 7e82 4231
00000250: 830e 3f31 9fbb ef30 660d 3f31 c4dc 0531
00000260: 021e 2e31 5ec6 c131 219a 3a31 337d 0231
00000270: 595e 8731 7214 f830 d61d 8631 d866 8d31
00000280: a798 2731 0618 7f31 5be7 8631 3b4b 2931
00000290: 3030 9a31 feec 2931 f58a 0031 8db6 5331
000002a0: 421f 2831 bdd9 2131 ac0f cd30 d4ea 2731
000002b0: 1af9 8231 7417 ae31 07f3 a431 43f1 5631
000002c0: e6fb 5831 51c4 2531 aac1 5e31 8dd7 6131
000002d0: 7626 3931 ef2b 9631 0230 4731 38b2 a031
000002e0: c967 1031 5b39 7731 d655 9430 b768 0531
000002f0: f81b da30 69b6 b730 0d54 5330 8c9a 0a31
00000300: eaa8 be31 b82d b431 f589 9c31 96b4 7031
00000310: 810a 9631 ee0c 8b31 dab9 a931 13d3 d531
00000320: 1a99 1a32 6a82 7932 bff2 ee31 227e 2532
00000330: 66e9 3132 39de db31 0a54 c731 dcf1 8431
00000340: 8326 0d32 62cd ca31 919a 4d32 8d07 9731
00000350: 6f82 2032 017f f231 db34 9231 705a 9631
00000360: d125 9c31 fdfe b531 c4c1 8131 4b89 a631
00000370: c988 9531 178c f831 e652 fe31 397f d331
00000380: 128b 9331 8aa1 9431 914a 9a31 6d3b ac31
00000390: d439 1932 35d6 bb31 9a0a c831 d6c8 0f32
000003a0: 58de df31 28fb 0032 22b7 9331 0cb2 dd30
000003b0: dc35 cb31 cc8c 4131 be34 b731 746d a231
000003c0: a029 8931 9010 0c31 1916 2c31 5371 3031
000003d0: c4d9 2b31 0594 0031 6d97 5d31 85c0 2331
000003e0: a1a3 6931 5e34 5f31 a0bf 2a31 e8ce 2331
000003f0: 2f9c 3131 981f 2e31 3f41 5231 6a86 9b31
3.0842038e-09 1.8132612e-09 2.6202605e-09 2.7754135e-09 2.2546758e-09 1.5807335e-09 2.8339033e-09 1.7003197e-09
1.727065e-09 4.2829944e-09 2.781038e-09 1.205088e-09 3.0092837e-09 1.7139942e-09 1.8570011e-09 2.4087554e-09
2.5046538e-09 2.2000872e-09 3.1329221e-09 1.7313503e-09 5.1806093e-09 1.7217552e-09 1.4698787e-09 8.8832225e-10
1.0259927e-09 2.9388165e-09 1.4912562e-09 1.2377461e-09 2.4848115e-09 2.9538052e-09 3.4336807e-09 1.8186834e-09
1.8218718e-09 1.5841315e-09 2.0287314e-09 2.2635231e-09 2.293674e-09 3.0914244e-09 1.8814377e-09 3.7960666e-09
2.0013198e-09 3.1288458e-09 4.685531e-10 9.220254e-10 1.2196754e-09 1.191627e-09 7.4187895e-10 1.2569575e-09
2.6906286e-09 1.7525674e-09 1.486327e-09 1.7229139e-09 2.266843e-09 1.3604476e-09 1.6565613e-09 1.8681443e-09
2.4345832e-09 5.2720206e-09 1.7276847e-09 2.371109e-09 2.8488583e-09 1.4892049e-09 2.287953e-09 3.148985e-09
2.043503e-09 1.9752244e-09 3.3392975e-09 2.017394e-09 2.4100733e-09 2.2088946e-09 1.6705085e-09 2.3664577e-09
2.100731e-09 1.6269931e-09 1.3935476e-09 2.2960156e-09 1.7666595e-09 2.818463e-09 2.70277e-09 3.0182474e-09
1.5706463e-09 1.5854642e-09 2.1923174e-09 1.2698053e-09 1.71342e-09 2.9265814e-09 1.7215941e-09 3.779715e-09
1.4147887e-09 2.62346e-09 1.2136394e-09 1.2462914e-09 1.2275472e-09 8.3311996e-10 6.7423456e-10 1.2766797e-09
1.5182986e-09 1.7278553e-09 1.5964967e-09 1.5195356e-09 3.3585141e-09 1.388258e-09 1.7932693e-09 2.0844442e-09
2.620274e-09 3.520132e-09 2.0735595e-09 2.7041274e-09 2.2974767e-09 1.9546569e-09 3.1034053e-09 3.3562766e-09
2.9281508e-09 3.6001901e-09 4.0758072e-09 2.543955e-09 8.807164e-09 2.8134417e-09 2.4345888e-09 3.8301886e-09
3.5431733e-09 3.3785341e-09 1.870156e-09 2.7101281e-09 3.3127172e-09 3.86206e-09 3.751674e-09 3.702357e-09
2.3381599e-09 2.4618698e-09 3.2494343e-09 3.2453134e-09 3.471077e-09 4.1603916e-09 3.1817242e-09 4.074363e-09
2.9871625e-09 5.0167714e-09 1.8208697e-09 1.4639395e-09 1.6164337e-09 9.372392e-10 1.3187696e-09 2.1917925e-09
3.2322225e-09 2.0065622e-09 2.2000233e-09 2.8304892e-09 2.7802407e-09 1.7442864e-09 2.7801774e-09 1.9479538e-09
2.533739e-09 5.639591e-09 2.7154174e-09 1.8988657e-09 3.939743e-09 1.8050186e-09 3.9033052e-09 4.115332e-09
2.4388471e-09 3.712104e-09 3.9262154e-09 2.46355e-09 4.487468e-09 2.4727451e-09 1.870544e-09 3.080831e-09
2.4464986e-09 2.3552353e-09 1.4920167e-09 2.4435183e-09 3.8118175e-09 5.066733e-09 4.800657e-09 3.127824e-09
3.1575325e-09 2.4122253e-09 3.2415337e-09 3.2864336e-09 2.6942906e-09 4.3705692e-09 2.89856e-09 4.676874e-09
2.1013753e-09 3.5975833e-09 1.0792813e-09 1.941357e-09 1.5869537e-09 1.3366847e-09 7.6880796e-10 2.0169493e-09
5.548931e-09 5.243887e-09 4.5558814e-09 3.5027248e-09 4.3667687e-09 4.0469024e-09 4.9396762e-09 6.2231122e-09
8.998791e-09 1.452336e-08 6.9543087e-09 9.632943e-09 1.0355825e-08 6.3990027e-09 5.8012164e-09 3.869202e-09
8.216037e-09 5.902323e-09 1.1967715e-08 4.395537e-09 9.342883e-09 7.0575656e-09 4.255168e-09 4.375856e-09
4.544497e-09 5.296782e-09 3.7764227e-09 4.8468443e-09 4.3520214e-09 7.2336763e-09 7.4017974e-09 6.1553718e-09
4.2940735e-09 4.3257318e-09 4.490467e-09 5.0126148e-09 8.918921e-09 5.466769e-09 5.8219713e-09 8.36936e-09
6.5154317e-09 7.507687e-09 4.299083e-09 1.613047e-09 5.9142007e-09 2.816523e-09 5.331997e-09 4.727264e-09
3.991957e-09 2.0382096e-09 2.5041855e-09 2.5675788e-09 2.500756e-09 1.871059e-09 3.2245808e-09 2.3829057e-09
3.3998975e-09 3.2480538e-09 2.4847182e-09 2.3837234e-09 2.584567e-09 2.5338291e-09 3.059611e-09 4.526375e-09

exp_avg f4 [32]
00000000: dff0 8cb7 4165 4436 b88c 8bb6 ef90 99b5
00000010: 72c3 0ab7 6137 bbb6 c8d9 2936 04fe 45b7
00000020: d0df 6e37 0a4f b4b6 be37 1fb7 d277 8137
00000030: b5b4 1736 a9ee a636 50e9 75b7 c3f4 4337
00000040: be21 d9b5 83b4 fd36 172c d935 e090 deb4
00000050: ca6f 9736 656c 57b4 3045 7d37 a540 5937
00000060: 3669 f0b5 7a3b 5137 d41e 9636 9dc4 8836
00000070: 4a58 9b33 0299 c136 3e3a 0a36 113f 1938
-1.6801465e-05 2.9265213e-06 -4.1589046e-06 -1.144157e-06 -8.270947e-06 -5.5794812e-06 2.5309728e-06 -1.1801258e-05
1.4238016e-05 -5.3736194e-06 -9.490117e-06 1.5433794e-05 2.2605939e-06 4.974969e-06 -1.465746e-05 1.1679894e-05
-1.617758e-06 7.561002e-06 1.6180592e-06 -4.1456133e-07 4.5131646e-06 -2.0062869e-07 1.5096084e-05 1.2949259e-05
-1.7912014e-06 1.2471219e-05 4.473937e-06 4.0760046e-06 7.2338096e-08 5.7696607e-06 2.0597504e-06 3.6536778e-05

exp_avg_sq f4 [32]
00000000: 4b01 1a31 db15 2c31 13d8 7c31 48ad 5631
00000010: 78bc 2932 e56d 9731 9910 c730 a274 c231
00000020: f95a c731 74a7 f830 2d8c ed31 b6b5 5732
00000030: c40f 7431 1e6b d531 57f7 b931 d107 8931
00000040: 2590 cc31 7c15 5e31 864a b431 8238 8d31
00000050: cf15 9131 2503 5931 28b3 a031 d45e 8831
00000060: dedb 8630 2f84 b731 ed71 f530 1391 0131
00000070: 79f1 8631 6e17 6531 99db 3331 3bd9 0833
2.2410684e-09 2.5041718e-09 3.679365e-09 3.1239598e-09 9.8799475e-09 4.407172e-09 1.4483873e-09 5.6594027e-09
5.8020047e-09 1.8091968e-09 6.913544e-09 1.2555963e-08 3.5515635e-09 6.2112937e-09 5.412328e-09 3.9881134e-09
5.9535687e-09 3.2317464e-09 5.247162e-09 4.1100643e-09 4.2225348e-09 3.1579444e-09 4.6769806e-09 3.9689017e-09
9.812273e-10 5.3410285e-09 1.7858476e-09 1.8854436e-09 3.9273655e-09 3.3337204e-09 2.6172755e-09 3.1862537e-08

exp_avg f4 [32, 32]
00000000: 2164 76b5 1db1 7035 f95a 48b6 3625 88b3
00000010: 79c5 c1b4 c4b3 a637 7770 9937 a8b1 c8b6
00000020: 14e8 19b6 b849 aeb5 942f fb36 c283 c636
00000030: 003e dcb6 7598 0c35 0af3 41b7 2b09 d9b6
00000040: 47cd 5a36 9100 8436 b0bc d935 0169 a435
00000050: bc08 5736 1e44 9db7 7dc0 1536 be8b 4cb5
00000060: 334a 28b6 5d74 1ab6 677c aeb5 30bf 3e34
00000070: be93 9fb7 f385 5534 0c60 6437 68ef 56b5
00000080: d968 8936 335a 1bb6 59a6 11b8 1d85 20b7
00000090: 1c39 feb7 a785 b437 f602 b537 d416 45b7
000000a0: 7934 76b6 a8af 50b7 b659 1bb7 a18d 0ab5
000000b0: bba0 a4b7 2fcf 8e37 e3dd 8037 68ef e8b7
000000c0: 6863 9fb7 88cc 8ab6 3063 3a36 ac36 8836
000000d0: 96ae 0037 c137 5fb8 acc7 e6b7 40b3 3935
000000e0: 7640 42b7 aed0 07b8 803d 3db7 f4ce 57b8
000000f0: f31b 11b8 ffde a1b6 aa1c 0038 949c 0f37
00000100: 7bea 84b6 45a5 1c36 e96e 71b6 6dde 6bb4
00000110: 2820 43b6 8ce9 d532 2364 a6b6 3015 1135
00000120: f5e6 2637 5187 8d36 74fa 7cb7 c14c 3937
00000130: 993d 9735 6892 1bb7 11be 2e37 eb1f 8e37
00000140: 2307 99b7 7860 f137 5310 dfb6 d836 b7b6
00000150: 9336 1237 5b8a 3337 b09b a5b7 8892 e435
00000160: 6b2f adb6 1522 1335 e332 bc37 1c57 4b36
00000170: 8abe 1c37 0558 a437 fa30 bfb7 4460 38b6
00000180: 6380 50b7 efba 7537 3f88 1d36 4e05 9ab6
00000190: bd8c 92b6 e06f 48b6 2024 16b6 13d7 71b6
000001a0: 2761 f735 72ac 68b5 4298 56b6 64c4 3a37
000001b0: b933 0c37 1ede 9835 2216 09b6 575b 1c37
000001c0: 289c b536 15e4 ea36 c0a8 5435 634e 4f35
000001d0: 429e 5cb6 7194 5e37 ba10 20b5 afe2 a9b6
000001e0: 6528 d736 c2f7 6f36 701d 3437 47f7 5e37
000001f0: aa45 e436 e898 19b4 8fc4 47b6 7a15 cf35
00000200: bcad a737 6a00 2db7 1cee 1337 4080 4637
00000210: cf12 4537 92ec 3c38 b314 0138 41e4 c237
00000220: 9533 bcb5 ceec 9937 ca1f 8f37 0d37 9437
00000230: 1600 22b7 f288 d537 f832 0138 55cd 6db6
00000240: c370 79b6 11c9 ae37 187a e537 2491 8037
00000250: 206c 3e38 ad6c cab7 a407 3137 b0a6 9e37
00000260: 3939 0ab7 0284 dd37 3cb5 5b37 9950 e0b7
00000270: 33dd b337 f456 3237 d5d9 d537 d660 6638
00000280: f759 adb5 23d9 aa36 a6e1 4836 b06b 8e36
00000290: 788a 0c34 fb05 f236 6e86 2a37 b8e9 cb36
000002a0: bb20 5835 c480 7037 e106 7a36 465e 3f36
000002b0: 6851 24b7 6748 ca37 90ce 6e37 14da 8d36
000002c0: 75e4 b336 c06a 9837 9f36 ab35 1573 cb36
000002d0: c571 f237 9a55 3fb6 91df e435 7f12 c234
000002e0: 4b53 6837 9a87 cbb5 f4ca a937 aded 0137
000002f0: 636a 38b7 b668 e736 b7c8 b836 ea7d 0837
00000300: 996a 05b6 6f88 9f32 edd1 91b6 f825 3d35
00000310: 1834 12b6 9c5a cf34 ed6a 3ab7 949a 34b6
00000320: 4b46 8fb6 fb1d 2f35 79c5 ef36 fc38 37b7
00000330: 90bb 8036 1100 2db7 5e8e acb6 49e9 a335
00000340: e282 8fb5 204e a436 5506 8d35 effd 4bb6
00000350: 3569 43b6 93ed 6837 9918 b5b5 c74e 1eb7
00000360: 135e e636 cd6f 42b7 c6fc 6c36 50d3 6736
00000370: 19eb 6037 fb52 8736 0adb d5b6 88b6 8eb7
00000380: a0a0 d133 e054 c2b6 8a03 f736 1ab5 a9b6
00000390: 93a2 7337 4e4d 2ab7 d002 e1b6 df25 acb5
000003a0: 9178 b836 db6c ffb5 c0c6 8a37 585d 8fb7
000003b0: 5544 3a37 00bd 46b7 9d25 0bb7 9200 5d37
000003c0: 2f09 9637 e4b8 f935 1f81 8936 cd5b 2636
000003d0: 1777 12b7 926d 0438 3b81 05b7 b491 cb34
000003e0: 2b9a 6537 3f60 b534 1dae f4b5 2e38 d337
000003f0: 60c3 8637 8193 2e36 9272 0937 565c 31b7
-9.178785e-07 8.96647e-07 -2.9855275e-06 -6.339762e-08 -3.6092732e-07 1.9872452e-05 1.8291392e-05 -5.9811464e-06
-2.2933864e-06 -1.2985465e-06 7.4859217e-06 5.9161985e-06 -6.5637287e-06 5.237592e-07 -1.1560283e-05 -6.4681713e-06
3.2604019e-06 3.9339725e-06 1.6222675e-06 1.2249512e-06 3.204258e-06 -1.8747578e-05 2.2314773e-06 -7.6199274e-07
-2.507714e-06 -2.301552e-06 -1.3000216e-06 1.7764683e-07 -1.9023075e-05 1.9885901e-07 1.3612222e-05 -8.0069594e-07
4.095124e-06 -2.3149303e-06 -3.4725617e-05 -9.567736e-06 -3.0305753e-05 2.1519909e-05 2.157826e-05 -1.174743e-05
-3.66874e-06 -1.2438664e-05 -9.259607e-06 -5.1615103e-07 -1.962517e-05 1.7024196e-05 1.5362113e-05 -2.7768037e-05
-1.9000567e-05 -4.136531e-06 2.7773895e-06 4.0594805e-06 7.6700435e-06 -5.3219268e-05 -2.7511116e-05 6.9178714e-07
-1.157831e-05 -3.2380856e-05 -1.1279597e-05 -5.1452735e-05 -3.4596724e-05 -4.824134e-06 3.0544274e-05 8.55992e-06
-3.9612037e-06 2.334201e-06 -3.5976357e-06 -2.1966999e-07 -2.9075982e-06 2.4902668e-08 -4.958843e-06 5.404754e-07
9.948145e-06 4.2178804e-06 -1.5078684e-05 1.104473e-05 1.1268304e-06 -9.272808e-06 1.04154615e-05 1.6942582e-05
-1.8242345e-05 2.877436e-05 -6.6478183e-06 -5.4602096e-06 8.714985e-06 1.0701445e-05 -1.974203e-05 1.702997e-06
-5.161322e-06 5.4811363e-07 2.2435042e-05 3.0300062e-06 9.342688e-06 1.959131e-05 -2.279178e-05 -2.747417e-06
-1.24276585e-05 1.4646662e-05 2.3474129e-06 -4.590175e-06 -4.367523e-06 -2.9867442e-06 -2.237277e-06 -3.6036988e-06
1.8431209e-06 -8.6677676e-07 -3.197711e-06 1.113219e-05 8.356693e-06 1.1389527e-06 -2.0427474e-06 9.319591e-06
5.4123993e-06 7.0002957e-06 7.922172e-07 7.7227577e-07 -3.2874673e-06 1.3266793e-05 -5.9628985e-07 -5.062982e-06
6.412202e-06 3.575799e-06 1.073569e-05 1.3289805e-05 6.8030395e-06 -1.4304862e-07 -2.9767723e-06 1.5428952e-06
1.9988853e-05 -1.03117e-05 8.817322e-06 1.183158e-05 1.1746494e-05 4.5043016e-05 3.0775274e-05 2.3232891e-05
-1.4022104e-06 1.8349292e-05 1.7061731e-05 1.766861e-05 -9.6559725e-06 2.5455349e-05 3.0803465e-05 -3.543527e-06
-3.7169527e-06 2.0836045e-05 2.7355782e-05 1.5326375e-05 4.540023e-05 -2.4130883e-05 1.0551801e-05 1.8912688e-05
-8.238764e-06 2.6406724e-05 1.3095614e-05 -2.6740412e-05 2.1441467e-05 1.0629872e-05 2.5493015e-05 5.492646e-05
-1.2915688e-06 5.091673e-06 2.9933667e-06 4.2444663e-06 1.308889e-07 7.2128582e-06 1.0164089e-05 6.07708e-06
8.05139e-07 1.4335095e-05 3.7256907e-06 2.8516092e-06 -9.794116e-06 2.4113991e-05 1.42339995e-05 4.227515e-06
5.3612116e-06 1.8169521e-05 1.275639e-06 6.0632688e-06 2.8901626e-05 -2.8511045e-06 1.705239e-06 3.6148774e-07
1.3847671e-05 -1.5164144e-06 2.0240877e-05 7.744337e-06 -1.0992025e-05 6.8965264e-06 5.5069936e-06 8.135548e-06
-1.9880592e-06 1.8572079e-08 -4.3457753e-06 7.046324e-07 -2.1786018e-06 3.8622682e-07 -1.11113595e-05 -2.6912066e-06
-4.2699153e-06 6.523621e-07 7.145744e-06 -1.0920918e-05 3.8365324e-06 -1.0311619e-05 -5.142573e-06 1.2212341e-06
-1.0692422e-06 4.896676e-06 1.0507162e-06 -3.0397166e-06 -2.9118503e-06 1.3883592e-05 -1.349271e-06 -9.435876e-06
6.865486e-06 -1.1589332e-05 3.5313874e-06 3.4544682e-06 1.3406178e-05 4.0329737e-06 -6.373394e-06 -1.7012717e-05
9.7615384e-08 -5.7915313e-06 7.3615856e-06 -5.0576755e-06 1.4521781e-05 -1.01507885e-05 -6.70585e-06 -1.282602e-06
5.497663e-06 -1.9030662e-06 1.6543432e-05 -1.7090395e-05 1.1102374e-05 -1.1845725e-05 -8.293803e-06 1.3172759e-05
1.788567e-05 1.8605756e-06 4.09795e-06 2.4789363e-06 -8.730006e-06 3.1573298e-05 -7.957507e-06 3.791771e-07
1.3685359e-05 3.3783905e-07 -1.823009e-06 2.517932e-05 1.6065023e-05 2.601388e-06 8.192512e-06 -1.0571521e-05

exp_avg_sq f4 [32, 32]
00000000: 25be ff30 e13b 3530 6974 7231 3ffc 4a30
00000010: db64 1731 6321 3431 8782 1d31 891d 1131
00000020: 949e 7d2f 8621 2f30 9f13 e931 973a 8c31
00000030: c97d b42f dd9d 9031 c06d c331 5021 5731
00000040: 54d6 8b31 2dd9 3b31 b988 c631 0698 6430
00000050: e6d1 8531 f987 3b31 9260 8c31 4dff 3830
00000060: dc37 0431 6d91 7831 c6a0 7a31 2ce6 1e30
00000070: ddd9 7e31 0e24 b730 009e 4a31 ccb0 f431
00000080: ad8b 7a31 a464 e031 c956 d232 c856 1e32
00000090: 6d33 ad32 7e93 a332 e863 2632 ca51 8531
000000a0: ecce 8f30 eeb8 8331 0739 d432 fa48 c532
000000b0: c362 4f31 1b80 5d32 aef7 7c32 0781 d531
000000c0: 9a5b a432 08df e031 91ed 9f32 fbdd 3532
000000d0: e541 0b32 761a 8132 7adf b032 26e8 a531
000000e0: 2b51 5232 14b6 c232 e78e 9a31 1f8c a932
000000f0: 9fea 6632 a2af 6731 4b0e a732 204f 0333
00000100: f5dd de30 c0c8 a530 6967 ab30 24f6 a931
00000110: 6b51 f230 47b0 ec31 b272 3831 2d91 6031
00000120: 5ebc f530 8a77 3a2f 5f0d af31 54f2 e831
00000130: bf44 a12f 3f9c d630 177c f331 321c fd31
00000140: ebe8 e931 0761 3e32 1b4b e430 6367 7230
00000150: 4ce1 e431 8ebc e631 4b84 ed31 4129 7a2f
00000160: e42a 0531 6738 d430 88b4 8b31 ff61 3932
00000170: 86ba e730 323f 6131 670c 3432 2ecc 3c32
00000180: 1cee 7530 1b52 6c31 c905 a731 9859 8d31
00000190: d8cf b631 774e eb31 b097 0631 fe92 0231
000001a0: cb5c b52e 6c72 1a30 0aea e631 badc c131
000001b0: fd4a c92f 02e7 5d31 69f1 2f32 ae3f 9c31
000001c0: e493 0032 8906 a231 f685 9130 8076 f930
000001d0: b0de e731 8cfe 0732 563e 6331 74db b230
000001e0: cbac 1432 51a5 f830 967f b031 289a 1332
000001f0: a7d1 0231 1bed 3b31 5711 2e32 a3d6 2432
00000200: 1246 db31 f5f6 e731 172e c232 df3e 2932
00000210: b4d8 d432 6b60 d432 b805 6732 10cc 0332
00000220: a1d9 cf30 aa89 5b31 2863 bc32 b56a e732
00000230: 2d40 2531 e9e0 8132 a3c8 c232 8453 2a32
00000240: 103d a732 b8e8 4932 3902 8a32 b5ee 2c32
00000250: b8ab 8732 1ca7 8332 4081 c532 38c8 b931
00000260: ddf7 9932 f277 0b33 a33c 4f32 88fe e032
00000270: c879 c532 24ec cb31 9674 bd32 2363 4033
00000280: 97be 2f30 0cf1 7330 2b36 3e31 ab50 1531
00000290: c15d 8930 33d7 0531 31f1 3530 a58b 2131
000002a0: 761a d42f aac5 2230 2046 0f31 cd1d c330
000002b0: 227f 4a30 71a0 d630 e522 1632 53ef 5b31
000002c0: 80e5 6830 17d6 a831 eff8 062f 8985 4631
000002d0: 3107 c631 e79e b230 79e0 3030 e857 dc2e
000002e0: a5c4 9431 5ce9 1731 29a7 af31 c80e 1a31
000002f0: a0dd 8231 21b4 0131 fd2c 8f31 10bd 8631
00000300: 066f d030 d63d 742e 41c5 c031 5b40 a22d
00000310: a158 0832 82ce 482f ecd8 0932 19af 1f2f
00000320: a96b 772f f14c fd30 6dbb 8831 1383 0e32
00000330: dcc6 8430 d40f 8432 90e2 c22f 9c81 842f
00000340: 86fa 0a31 f556 f72f a37c bc32 7542 0d31
00000350: fa79 fd2f 7b3d 2631 066c f131 b896 af30
00000360: 5ba3 ec2f 5947 0d32 0743 c32e 5d62 a830
00000370: bfb1 0031 a8f3 922f 9d75 8c30 bcd6 d331
00000380: 9f5a 8e2f af23 8d31 ddf3 9232 88e2 bb31
00000390: 55ed a331 c6f4 5332 5491 2431 1651 2f31
000003a0: 6593 ea30 7b9b 0931 76c1 7632 1f49 3232
000003b0: 2f2b 2531 b61c 5631 c3e3 b130 abd6 8931
000003c0: 07be 1d32 c3d6 4e31 2079 5732 4c85 a831
000003d0: 1c5f 9b31 9a8a 8031 4e46 7032 e3b6 4d31
000003e0: e7d4 ea30 6fea 7232 5798 9331 0cc6 3332
000003f0: 635f 5232 b5f8 e52f 17a4 4f31 8719 3632
1.8607734e-09 6.593251e-10 3.5281806e-09 7.3845635e-10 2.2030722e-09 2.6212426e-09 2.2920703e-09 2.1117066e-09
2.3066554e-10 6.371227e-10 6.783423e-09 4.081197e-09 3.2831185e-10 4.2088986e-09 5.687724e-09 3.1305554e-09
4.0697987e-09 2.7335532e-09 5.778102e-09 8.3161955e-10 3.894672e-09 2.7289373e-09 4.085515e-09 6.7301614e-10
1.924028e-09 3.6171415e-09 3.6471177e-09 5.780716e-10 3.7085706e-09 1.332525e-09 2.9484681e-09 7.121434e-09
3.6459185e-09 6.5306995e-09 2.4486683e-08 9.216542e-09 2.0163236e-08 1.904277e-08 9.685188e-09 3.880108e-09
1.046343e-09 3.833626e-09 2.4705981e-08 2.2967004e-08 3.0178604e-09 1.2893021e-08 1.4724646e-08 6.2137846e-09
1.9133768e-08 6.5446137e-09 1.8618069e-08 1.0586059e-08 8.1058475e-09 1.502961e-08 2.0590722e-08 4.8285242e-09
1.2242064e-08 2.2667372e-08 4.498236e-09 1.9737909e-08 1.3441109e-08 3.371476e-09 1.9447858e-08 3.0572778e-08
1.621571e-09 1.2062387e-09 1.2471278e-09 4.9465303e-09 1.7630958e-09 6.8885444e-09 2.684072e-09 3.2678813e-09
1.7879633e-09 1.695907e-10 5.0946904e-09 6.779638e-09 2.9334576e-10 1.5614957e-09 7.086338e-09 7.3664745e-09
6.807672e-09 1.1081517e-08 1.661053e-09 8.818601e-10 6.6612866e-09 6.715317e-09 6.912648e-09 2.2752024e-10
1.9378428e-09 1.5441061e-09 4.0659565e-09 1.0790699e-08 1.6860475e-09 3.2777732e-09 1.0480199e-08 1.0989465e-08
8.9468855e-10 3.4389191e-09 4.8609974e-09 4.1138257e-09 5.3205262e-09 6.8483206e-09 1.958579e-09 1.9001045e-09
8.2474104e-11 5.6187477e-10 6.720488e-09 5.642133e-09 3.661497e-10 3.2291045e-09 1.0241231e-08 4.547437e-09
7.484207e-09 4.7155635e-09 1.0588213e-09 1.8150814e-09 6.7483015e-09 7.9159115e-09 3.3068281e-09 1.3013577e-09
8.654022e-09 1.8091361e-09 5.136779e-09 8.591577e-09 1.9036663e-09 2.734686e-09 1.0132076e-08 9.594859e-09
6.381705e-09 6.7510606e-09 2.2605532e-08 9.85139e-09 2.4778593e-08 2.4723894e-08 1.344727e-08 7.671602e-09
1.5123086e-09 3.1946947e-09 2.1931172e-08 2.6940464e-08 2.404714e-09 1.5119854e-08 2.2675811e-08 9.914292e-09
1.9469127e-08 1.1752654e-08 1.6066325e-08 1.0065993e-08 1.5794157e-08 1.53264e-08 2.2992594e-08 5.406971e-09
1.792426e-08 3.247255e-08 1.2062773e-08 2.619278e-08 2.2989198e-08 5.9349237e-09 2.2055513e-08 4.4793648e-08
6.3935474e-10 8.8745433e-10 2.767943e-09 2.1728208e-09 9.994708e-10 1.9476374e-09 6.619017e-10 2.3507962e-09
3.8581377e-10 5.9216154e-10 2.08491e-09 1.4196587e-09 7.366784e-10 1.561615e-09 8.739083e-09 3.2004734e-09
8.472725e-10 4.9137827e-09 1.2275668e-10 2.8888698e-09 5.763376e-09 1.2996367e-09 6.434742e-10 1.0020057e-10
4.329723e-09 2.2106041e-09 5.1121742e-09 2.2418352e-09 3.808694e-09 1.8874362e-09 4.1669623e-09 3.921407e-09
1.5165547e-09 5.5534098e-11 5.6103606e-09 1.8445847e-11 7.936394e-09 1.826326e-10 8.023772e-09 1.4523173e-10
2.2502768e-10 1.8430041e-09 3.979429e-09 8.295291e-09 9.660783e-10 1.537402e-08 3.5449377e-10 2.4102753e-10
2.022405e-09 4.4990825e-10 2.1942759e-08 2.0555977e-09 4.6107101e-10 2.4191127e-09 7.026304e-09 1.2775763e-09
4.304422e-10 8.223503e-09 8.87948e-11 1.2251565e-09 1.8727488e-09 2.6730373e-10 1.0219768e-09 6.1653207e-09
2.589404e-10 4.107697e-09 1.7107533e-08 5.46817e-09 4.770906e-09 1.23374715e-08 2.394775e-09 2.5511944e-09
1.7067633e-09 2.0024504e-09 1.43630725e-08 1.03775895e-08 2.4035207e-09 3.1157419e-09 1.2943179e-09 4.0116297e-09
9.18181e-09 3.0099023e-09 1.2542188e-08 4.9045976e-09 4.5219064e-09 3.7410475e-09 1.3985824e-08 2.9935385e-09
1.7086251e-09 1.4139558e-08 4.295582e-09 1.0464202e-08 1.2245297e-08 4.1831574e-10 3.0215739e-09 1.05995985e-08

exp_avg f4 [32]
00000000: 871c 42b7 681f 12b8 06e8 27b2 ea80 f036
00000010: 410d d837 5c33 2f37 efc0 bbb6 0f57 8337
00000020: aa9a 9e36 83fc d536 4324 3d37 eef9 d5b7
00000030: 0189 e1b3 5b0a aab7 38ee 6f36 0beb ce36
00000040: bc02 9137 d928 1a36 2b16 fa37 932f ec37
00000050: 127f 2a37 edb3 8036 d316 7335 1519 bfb7
00000060: 7fdc c3b6 f60d 15b6 5a95 0738 537c 72b7
00000070: 2f8e 4137 a82b 76b6 b300 4fb5 f18c d9b6
-1.1569943e-05 -3.4838362e-05 -9.773435e-09 7.167565e-06 2.5755378e-05 1.0442771e-05 -5.5954947e-06 1.5656957e-05
4.726772e-06 6.377291e-06 1.1273721e-05 -2.5507961e-05 -1.05023e-07 -2.0270401e-05 3.5752437e-06 6.166641e-06
1.728662e-05 2.2971565e-06 2.9812645e-05 2.8155546e-05 1.01623755e-05 3.8356434e-06 9.055777e-07 -2.2780654e-05
-5.837122e-06 -2.2210857e-06 3.2325603e-05 -1.44532705e-05 1.1536801e-05 -3.6682268e-06 -7.7114527e-07 -6.4835117e-06

exp_avg_sq f4 [32]
00000000: fa0b 2532 5a3d 4f33 4d2b 3132 ab03 8f32
00000010: 6caf 8733 2605 0032 e9e0 1632 e638 b532
00000020: 8f77 0932 5dc1 8032 8463 c731 2f35 2f33
00000030: 9399 c431 32d3 6432 5bef 2533 f104 ca32
00000040: feac 2632 85e1 3e32 f6ab 8f32 5e80 a932
00000050: 1e7d 3732 8b95 d432 6f68 0d31 7cfd 2a33
00000060: 32f9 1531 89fd 5d32 ab59 0533 ffd6 7e31
00000070: 54bb 0133 e611 fb31 fb2d 6631 b089 0c32
9.606987e-09 4.8251742e-08 1.0312601e-08 1.6649059e-08 6.3183364e-08 7.451751e-09 8.782288e-09 2.1097048e-08
8.001634e-09 1.4989093e-08 5.802976e-09 4.0793733e-08 5.72181e-09 1.3319367e-08 3.863475e-08 2.3518142e-08
9.701806e-09 1.1110733e-08 1.672559e-08 1.9732564e-08 1.068045e-08 2.4748052e-08 2.0577564e-09 3.9811752e-08
2.1824005e-09 1.292154e-08 3.1048028e-08 3.7084076e-09 3.0205527e-08 7.3070963e-09 3.3495542e-09 8.180379e-09

exp_avg f4 [2, 32]
00000000: ca94 2db8 3bd4 05b8 2ce4 bab7 a72c de38
00000010: 5202 a239 9cc2 7438 cfdb 8c38 8813 2cb7
00000020: 1e42 fb35 7c7c 8d37 5665 adb7 be3a 14b8
00000030: da14 7036 f87c ba37 6da2 2239 32d2 59b9
00000040: daad 2138 0ba8 48b7 2dc6 ccb8 53e0 bcb6
00000050: bd01 33b7 6a7f f9b7 6bbf 9537 45a6 b8b8
00000060: 725f 0738 bfa2 b9b7 cfe4 9938 32df 01b8
00000070: 2c46 44b7 c04f ba38 2bce 07b5 f7a8 5d38
00000080: 01fc 5db7 16dc 3638 4433 e937 02c9 9c38
00000090: 32e2 b4b8 14dd 9e37 5950 4cb7 cc5d bbb4
000000a0: 7e01 1eb8 4fe9 50b8 ec44 8b34 9593 26b9
000000b0: 1a29 0cb7 f971 2cb8 e4c3 abb8 c299 26b8
000000c0: 32e4 aeb8 5a76 f4b8 a6bc 86b9 194a 42b9
000000d0: 722d 27b8 7045 8eb8 60f3 f6b3 85ca d0b7
000000e0: 2a27 52b8 99b3 8937 05d1 72b7 1906 4bb8
000000f0: 382e 95b9 1502 9138 9051 8f37 e05c a6b8
-4.1384985e-05 -3.1907326e-05 -2.2279179e-05 0.00010594102 0.00030900777 5.8355377e-05 6.716663e-05 -1.0256546e-05
1.87202e-06 1.6866477e-05 -2.0670395e-05 -3.5340658e-05 3.5774924e-06 2.2231121e-05 0.00015510032 -0.00020773037
3.8547303e-05 -1.19600545e-05 -9.764391e-05 -5.6289514e-06 -1.0669636e-05 -2.9742445e-05 1.785132e-05 -8.804774e-05
3.22754e-05 -2.2129503e-05 7.3382274e-05 -3.0963864e-05 -1.16988485e-05 8.884026e-05 -5.0591433e-07 5.2847867e-05
-1.3231301e-05 4.3597152e-05 2.7799637e-05 7.4761e-05 -8.625201e-05 1.8938015e-05 -1.2178055e-05 -3.489971e-07
-3.7671525e-05 -4.980835e-05 2.5940915e-07 -0.00015885972 -8.35422e-06 -4.111414e-05 -8.190403e-05 -3.9720682e-05
-8.339471e-05 -0.00011656871 -0.00025699026 -0.00018528885 -3.9858227e-05 -6.7840214e-05 -1.1499537e-07 -2.4889838e-05
-5.0104376e-05 1.6415304e-05 -1.447299e-05 -4.840465e-05 -0.0002845393 6.9145266e-05 1.7084909e-05 -7.932796e-05

exp_avg_sq f4 [2, 32]
00000000: ea27 9234 790c 0636 3340 7033 f849 6c35
00000010: b5be 3b36 e723 8033 cddc e933 0368 f234
00000020: f2a9 4434 c36f f334 5cef 1c32 2c20 df35
00000030: a2cb 8c32 71a9 bf34 8ef9 1336 4259 e135
00000040: 5155 a134 1a43 4735 9334 6535 0fdd 9235
00000050: 57dc f034 ad4c 0a35 42d7 9b32 618f 8435
00000060: e764 2f33 d192 5834 c1ad 6935 8f14 0f32
00000070: c534 0236 34ec 8034 432d 2e33 12ea 6c34
00000080: dd49 5334 a451 ce35 792a 3733 47f5 3d35
00000090: 80c6 1a36 a4bc 3b33 f8f9 8033 931e a634
000000a0: d029 0534 8742 a234 b246 1a32 232f b835
000000b0: fbd9 5932 160e 9034 07e0 e435 08ad ae35
000000c0: 7e39 7834 b751 1c35 9185 3835 a3c6 6d35
000000d0: a4a0 bd34 c710 d534 07df 4f32 1439 5335
000000e0: c822 1933 4515 1834 567e 3935 c0fa e431
000000f0: 9b09 d135 8941 3d34 0575 0d33 b9a2 4334
2.722366e-07 1.9974816e-06 5.5937743e-08 8.802449e-07 2.7976178e-06 5.966995e-08 1.08900714e-07 4.515169e-07
1.8315748e-07 4.5343594e-07 9.134819e-09 1.6624158e-06 1.6390747e-08 3.5699807e-07 2.2049967e-06 1.6789784e-06
3.0050663e-07 7.423092e-07 8.5385653e-07 1.0942184e-06 4.4863802e-07 5.1520584e-07 1.8142263e-08 9.876495e-07
4.0837133e-08 2.0169979e-07 8.705211e-07 8.32837e-09 1.9402225e-06 2.4013718e-07 4.0553697e-08 2.2064367e-07
1.9677778e-07 1.5371957e-06 4.2646636e-08 7.076491e-07 2.306333e-06 4.3710898e-08 6.0059335e-08 3.0942155e-07
1.2401802e-07 3.0223256e-07 8.980054e-09 1.3722787e-06 1.2680625e-08 2.683234e-07 1.7052524e-06 1.3014369e-06
2.3117715e-07 5.823344e-07 6.8739706e-07 8.8578435e-07 3.5320875e-07 3.968655e-07 1.2099696e-08 7.8686685e-07
3.5654722e-08 1.4163841e-07 6.9101714e-07 6.6641803e-09 1.5574509e-06 1.7625838e-07 3.293555e-08 1.8219988e-07

exp_avg f4 [2]
00000000: eb62 52b9 f960 d2b9
-0.0002006401 -0.00040126572

exp_avg_sq f4 [2]
00000000: 8f25 0d37 9b72 e436
8.413e-06 6.8082713e-06
